PINNs/model_saved/outputs_Burgers/u_network.0.pth (torch, 57865 bytes, 13 tensors)

_impl.layers.0.linear.weight f4 [64, 2]
-0.22678836 -0.16698839 0.26594958 -0.12738554 0.063686945 -0.27020013 -0.029289488 -0.14055403
-0.27044967 0.01396353 0.23840535 0.18197905 -0.2682918 0.018290684 0.030913195 -0.18658628
0.062351715 -0.21476619 -0.11289813 -0.107648686 0.0019518333 -0.29066002 -0.07950529 -0.19518565
0.09657144 0.10080694 0.0043691024 -0.15867397 -0.16711919 0.36485323 0.027208868 0.2537353
-0.086874485 -0.026127622 -0.06933828 0.057336453 -0.111712046 0.35487244 0.14157714 -0.0034550817
0.18317293 -0.19227883 -0.22616577 0.02653533 -0.013862304 0.08981781 0.28897452 -0.028338261
0.124029405 0.037301175 -0.124851376 0.18684971 0.012732415 0.24022071 -0.0011225556 -0.15349571
0.17817736 0.22243279 -0.13719477 -0.04258245 -0.12877749 0.103102416 -0.066613354 -0.20063621
0.19363809 -0.114803836 0.08763997 0.21120284 0.26910037 -0.20943671 0.10188162 0.021608308
0.029287249 0.2925606 -0.13872175 -0.2035267 0.112011366 0.059179816 0.07251469 -0.10456642
-0.11911178 -0.23955752 -0.060704287 -0.27638176 0.015564997 -0.258827 -0.23426598 0.073698156
-0.10489866 -0.23328643 0.06560896 0.122129925 0.12700139 0.03479212 0.06668344 0.16415408
-0.126683 0.31392974 0.034097746 -0.13901539 -0.10055651 -0.2634128 0.15950316 0.060132697
0.07447597 0.15180562 -0.2033744 -0.11532024 0.299214 0.22899303 0.17220196 0.056612656
-0.18553647 -0.13387516 0.094471864 0.32479236 0.051589884 -0.27087957 -0.23943447 0.11664285
0.05365127 -0.1643074 -0.3026175 -0.03662367 0.16651116 -0.07315864 -0.04135571 -0.219119
00000000: 353b 68be 01ff 2abe 8b2a 883e 5b71 02be
00000010: 4d6e 823d ac57 8abe 82f0 efbc 65ed 0fbe
00000020: 6178 8abe 4ac7 643c 8820 743e b758 3a3e
00000030: 8b5d 89be 58d6 953c ab3d fd3c 7910 3fbe
00000040: 8364 7f3d abeb 5bbe 2337 e7bd ea76 dcbd
00000050: a8d4 ff3a 64d1 94be abd3 a2bd bfde 47be
00000060: 3fc7 c53d de73 ce3d b02a 8f3b 6e7b 22be
00000070: 4b21 2bbe 0bce ba3e 22e5 de3c 98e9 813e
00000080: 40eb b1bd 9809 d6bc 3a01 8ebd a1d9 6a3d
00000090: 49c9 e4bd d7b1 b53e 99f9 103e a76e 62bb
000000a0: af91 3b3e bee4 44be 0098 67be 9f60 d93c
000000b0: b81e 63bc 66f2 b73d 78f4 933e a425 e8bc
000000c0: 2103 fe3d 1ec9 183d 14b2 ffbd 8855 3f3e
000000d0: 9f9b 503c 6bfc 753e b722 93ba fb2d 1dbe
000000e0: 2074 363e 6cc5 633e c97c 0cbe ef6a 2ebd
000000f0: 3fde 03be 5c27 d33d 956c 88bd 9473 4dbe
00000100: 1049 463e 461e ebbd 967c b33d 8f45 583e
00000110: 86c7 893e 9476 56be 50a7 d03d e803 b13c
00000120: d0eb ef3c 81ca 953e 130d 0ebe 4e69 50be
00000130: 3766 e53d 8966 723d 9582 943d eb26 d6bd
00000140: e0f0 f3bd 914e 75be 0fa5 78bd e981 8dbe
00000150: 5404 7f3c f984 84be 6ce3 6fbe 0fef 963d
00000160: 1cd5 d6bd a3e2 6ebe fe5d 863d 411f fa3d
00000170: a70c 023e 2f82 0e3d 5491 883d 0218 283e
00000180: 30b9 01be 66bb a03e 14aa 0b3d 0d5a 0ebe
00000190: 92f0 cdbd 0bde 86be cc54 233e b44d 763d
000001a0: db86 983d ef72 1b3e 6141 50be 052d ecbd
000001b0: 9432 993e 267d 6a3e b655 303e ace2 673d
000001c0: 46fd 3dbe 9216 09be 777a c13d 2f4b a63e
000001d0: ea4f 533d bab0 8abe 4f2e 75be 72e2 ee3d
000001e0: 6fc1 5b3d 3340 28be aef0 9abe b402 16bd
000001f0: e781 2a3e 32d4 95bd 9b64 29bd bb60 60be

_impl.layers.0.linear.weight_g f4 [64, 1]
0.9174881 0.9763391 1.3709055 1.0615326 0.98277825 1.1412946 1.0383359 1.1448241
1.4188627 0.9585387 1.3043705 0.98804915 0.9480604 1.269289 0.8573278 1.0513697
1.0706935 0.9386267 1.1637251 1.0152695 0.8988873 1.0117465 1.2775264 1.0187917
1.053812 0.9276442 1.3991263 0.9581091 1.2645335 1.1044029 0.91888845 1.3100482
1.0367501 1.1551019 0.99659175 0.9884794 0.90661323 0.95663255 0.9649991 0.9057418
0.88492036 0.9878679 1.4396385 0.9775552 0.90512747 0.8313371 1.0146253 1.1214527
1.1436539 0.9477971 1.1358161 1.0356143 0.88043994 1.0553819 0.87287426 1.0070248
1.2363979 1.0618119 1.3917755 0.96019465 1.4160991 0.9310134 0.9483035 1.6040671
00000000: 80e0 6a3f 5cf1 793f d579 af3f 4de0 873f
00000010: 5b97 7b3f f115 923f 31e8 843f 9989 923f
00000020: 4b9d b53f cb62 753f 9df5 a63f caf0 7c3f
00000030: 16b4 723f 1078 a23f d679 5b3f 4893 863f
00000040: 7c0c 893f d749 703f f2f4 943f 5af4 813f
00000050: 7a1d 663f e980 813f fc85 a33f c467 823f
00000060: 50e3 863f 177a 6d3f 9216 b33f a346 753f
00000070: 3cdc a13f 135d 8d3f 463c 6b3f a9af a73f
00000080: 3ab4 843f 61da 933f a320 7f3f fc0c 7d3f
00000090: ce17 683f dfe5 743f 2e0a 773f b2de 673f
000000a0: 248a 623f e9e4 7c3f 1346 b83f 0f41 7a3f
000000b0: 6fb6 673f 82d2 543f 3edf 813f c38b 8f3f
000000c0: 4063 923f d5a2 723f 6c62 913f 028f 843f
000000d0: 8364 613f c116 873f b074 5f3f 30e6 803f
000000e0: 4942 9e3f 74e9 873f b325 b23f 51cf 753f
000000f0: bc42 b53f e556 6e3f 05c4 723f 1252 cd3f

_impl.layers.0.linear.bias f4 [64]
0.00834874 -0.09109828 -0.31683284 0.03453584 -0.104174204 -0.1735647 0.014309075 -0.19605713
-0.34001398 0.112824336 -0.027559431 0.16437395 -0.11538154 -0.037840627 0.12782069 -0.08159839
-0.12924227 0.10804847 0.35967374 0.03022917 0.24150418 -0.17064926 0.1571825 -0.04788816
0.08577152 -0.23815033 -0.09623394 -0.040689353 -0.35021496 -0.018129062 0.07392473 0.4229905
0.09583959 0.0075362297 -0.042733278 -0.047059536 0.06442903 0.22400369 0.10348622 0.23991814
0.10132591 0.044506438 -0.13109621 -0.0051925643 0.15624371 0.012314482 -0.028243251 -0.49321654
-0.06349802 -0.2560116 0.35862142 -0.016812248 -0.14621423 0.08366751 0.11892997 0.12614883
-0.31505573 -0.32173333 -0.28086922 0.027594464 -0.42527014 -0.12925196 0.1834614 0.26407284
00000000: 27c9 083c bc91 babd ea37 a2be 7475 0d3d
00000010: 4959 d5bd f2ba 31be 9c70 6a3c 33c3 48be
00000020: 5016 aebe 7210 e73d 51c4 e1bc a551 283e
00000030: 284d ecbd c6fe 1abd 6de3 023e 0f1d a7bd
00000040: 1658 04be 8448 dd3d 2827 b83e 2aa3 f73c
00000050: df4c 773e aebe 2ebe 73f4 203e 6026 44bd
00000060: fba8 af3d aedd 73be 4d16 c5bd e1a9 26bd
00000070: 604f b3be 6683 94bc d965 973d 3692 d83e
00000080: 8c47 c43d 7af2 f63b 1709 2fbd 80c1 40bd
00000090: 5ef3 833d 3961 653e 95f0 d33d 1aad 753e
000000a0: f583 cf3d 624c 363d 163e 06be 6326 aabb
000000b0: 5afe 1f3e aec2 493c 645e e7bc e186 fcbe
000000c0: 400b 82bd f413 83be 3a9d b73e d7b9 89bc
000000d0: 2fb9 15be df59 ab3d 8e91 f33d 292d 013e
000000e0: fc4e a1be 3bba a4be 17ce 8fbe c90d e23c
000000f0: 02bd d9be a05a 04be 4edd 3b3e 8e34 873e

_impl.layers.1.linear.weight f4 [64, 64]
-0.061557405 0.07245082 -0.1203976 0.013082207 0.025863886 0.13164641 0.12728079 -0.16726346
0.047177657 -0.054082178 0.17649435 0.056912947 -0.20347619 -0.09639754 -0.17897603 0.1143315
-0.11922245 -0.19706681 0.22760837 -0.066546716 -0.04837244 -0.16267091 -0.09834327 -0.16747221
-0.029458798 0.049987566 0.21170968 -0.23104455 0.008144695 0.06271095 -0.16352007 0.118542306
0.11282093 0.0052385298 0.106971286 0.04789121 -0.059417725 -0.13880375 -0.09183937 -0.0679733
0.117001355 -0.017198686 0.08182957 -0.05501754 -0.08953683 0.159138 0.041836914 -0.005018375
0.0016839728 0.055650923 -0.031577002 -0.20348477 -0.16292693 0.08170933 -0.18500811 -0.1677724
-0.06804372 -0.035069197 0.1642522 -0.091312274 -0.21271794 -0.024343178 0.13589631 0.058512602
0.0025836055 -0.10681594 0.08299374 -0.16669255 0.041505 -0.109350644 -0.20192705 0.085571
-0.2131548 0.1550953 -0.15280499 -0.09605547 0.04593822 0.18798669 -0.012122632 0.02266035
0.1352296 -0.047402002 -0.09918505 0.018226761 -0.062395938 -0.2607478 -0.06419847 0.16100529
0.24020857 -0.13627158 -0.18751015 -0.03831703 0.008297357 -0.20631503 0.0203637 -0.08260432
-0.0031826522 -0.039078955 -0.06420596 0.18143347 0.0033480616 -0.0717715 -0.056434568 0.014126307
0.011133106 0.10809761 0.034348775 -0.13140075 0.11492119 -0.09211736 -0.12358396 -0.13074589
-0.12517862 -0.032504566 -0.10723664 0.040368833 -0.071464874 -0.07561898 0.16309561 0.2407313
-0.12009697 0.071391076 -0.2083025 -0.016018962 -0.076407485 -0.20766766 0.23696479 0.13368125
-0.0770033 0.10166918 0.1990626 -0.076164626 -0.21896501 -0.04572179 0.055587333 0.12286298
0.009438572 -0.04251924 0.1746155 -0.18730107 0.13204522 0.14063603 0.09792853 0.01725416
-0.23007141 -0.14980838 0.18440899 0.22678049 0.036811948 -0.17368895 -0.20885395 0.1002069
0.049965236 -0.003936996 -0.20560008 0.09786444 0.123557284 -0.18644154 -0.15001568 -0.046732392
-0.13002753 -0.029882943 -0.15617378 0.20969747 0.15892893 -0.082405746 0.20790775 0.19334024
-0.09176028 0.012475385 -0.0049748486 -0.062180415 -0.2084663 -0.1600672 0.0536255 -0.09350539
-0.03967183 -0.18056664 0.116877556 0.19808331 0.05186832 0.14245495 -0.038496595 0.0031496065
-0.17516248 0.05948407 0.036041874 -0.098174065 0.08731993 -0.14477934 -0.16191453 0.08670597
-0.016097676 0.2155992 0.108134076 0.016163673 0.092912495 0.05661577 0.14869575 0.122182675
0.27995855 -0.06473517 -0.004307869 0.12198254 -0.082451664 -0.02199176 -0.06106332 0.038261175
-0.041436054 0.1315012 -0.26701233 0.006645645 -0.15096638 0.027239187 -0.18458569 0.13717228
-0.014391398 -0.015407345 -0.23105387 0.2075781 0.060538247 -0.18664174 0.17537169 -0.15578654
0.2192658 0.11504762 -0.017605439 -0.07358697 0.06020848 0.19123629 -0.17827117 -0.15862475
-0.19503617 0.0037404587 0.015826404 0.06844064 0.09501249 -0.044671517 0.014001076 -0.037311133
0.18137458 0.22757028 -0.03415886 0.02254267 0.13929957 -0.0045578373 0.13126835 0.016342694
0.19054084 -0.23063828 0.21955046 0.11469942 0.16240843 -0.12090831 0.13088268 0.100245945
00000000: 9e23 7cbd 1861 943d 0493 f6bd c156 563c
00000010: 80e0 d33c 51ce 063e e555 023e 1d47 2bbe
00000020: 5c3d 413d 4685 5dbd efba 343e 8d1d 693d
00000030: 105c 50be 136c c5bd 7e45 37be a226 ea3d
00000040: e62a f4bd e2cb 49be 2b12 693e a549 88bd
00000050: 2e22 46bd 3493 26be 3268 c9bd d67d 2bbe
00000060: 9453 f1bc c3bf 4c3d 6cca 583e f196 6cbe
00000070: 5471 053c 996e 803d ce71 27be 4fc6 f23d
00000080: a90e e73d f9a7 ab3b c313 db3d 9329 443d
00000090: 0060 73bd 9222 0ebe 4816 bcbd 9635 8bbd
000000a0: 689e ef3d 42e4 8cbc 4396 a73d 125a 61bd
000000b0: 165f b7bd 12f5 223e 2f5d 2b3d 2e71 a4bb
000000c0: c0b8 dc3a 39f2 633d e356 01bd 505e 50be
000000d0: 51d6 26be 3957 a73d c472 3dbe 87cc 2bbe
000000e0: 825a 8bbd b8a4 0fbd bb31 283e ee01 bbbd
000000f0: bbd2 59be 586b c7bc 6728 0b3e e9aa 6f3d
00000100: b551 293b 51c2 dabd 9ff8 a93d 74b1 2abe
00000110: 2601 2a3d 3bf3 dfbd f7c5 4ebe d93f af3d
00000120: 4045 5abe 4dd1 1e3e e978 1cbe bbb8 c4bd
00000130: b729 3c3d 957f 403e 019e 46bc 33a2 b93c
00000140: a179 0a3e 9a28 42bd 8821 cbbd 4a50 953c
00000150: e292 7fbd bc80 85be 7d7a 83bd 92de 243e
00000160: 3cf9 753e c78a 0bbe a902 40be 51f2 1cbd
00000170: a3f1 073c 3f44 53be c6d1 a63c 742c a9bd
00000180: 0b94 50bb 4111 20bd 6a7e 83bd b2c9 393e
00000190: 276b 5b3b f0fc 92bd ef27 67bd 0772 673c
000001a0: a267 363c 4862 dd3d 4db1 0c3d eb8d 06be
000001b0: cd5b eb3d 07a8 bcbd 9619 fdbd 40e2 05be
000001c0: d32e 00be 8223 05bd e29e dbbd ca59 253d
000001d0: 2d5c 92bd 20de 9abd 8902 273e 4482 763e
000001e0: 66f5 f5bd 7c35 923d 404d 55be 333a 83bc
000001f0: 877b 9cbd d5a6 54be e6a6 723e bde3 083e
00000200: e8b3 9dbd ee37 d03d 11d7 4b3e 33fc 9bbd
00000210: 5d38 60be c646 3bbd 8baf 633d 969f fb3d
00000220: 3ea4 1a3c a828 2ebd 68ce 323e dacb 3fbe
00000230: dd36 073e e402 103e c18e c83d 9958 8d3c
00000240: d797 6bbe 5e67 19be b6d5 3c3e 2539 683e
00000250: 20c8 163d 84db 31be cfdd 55be 4639 cd3d
00000260: 59a8 4c3d eb01 81bb d488 52be 276d c83d
00000270: 9a0b fd3d 88ea 3ebe b69d 19be 776a 3fbd
00000280: f025 05be 13cd f4bc 05ec 1fbe efba 563e
00000290: 44be 223e 58c4 a8bd c5e5 543e fcfa 453e
000002a0: d0ec bbbd 8f65 4c3c 0e04 a3bb e4b0 7ebd
000002b0: 3178 55be a8e8 23be 6aa6 5b3d c17f bfbd
000002c0: ee7e 22bd 76e6 38be 805d ef3d 5ad6 4a3e
000002d0: e073 543d b6df 113e 9bae 1dbd a169 4e3b
000002e0: cb5d 33be 91a5 733d a5a0 133d 7c0f c9bd
000002f0: cbd4 b23d 0941 14be eccc 25be e692 b13d
00000300: 46df 83bc 09c6 5c3e 6675 dd3d ae69 843c
00000310: e848 be3d f0e5 673d b343 183e e93a fa3d
00000320: ba56 8f3e df93 84bd 0629 8dbb fbd1 f93d
00000330: 6bdc a8bd 1028 b4bc 881d 7abd c0b7 1c3d
00000340: dab8 29bd 40a8 063e d7b5 88be b6c3 d93b
00000350: ee96 1abe b724 df3c 0804 3dbe e476 0c3e
00000360: e6c9 6bbc 176f 7cbc 6399 6cbe 5a8f 543e
00000370: f4f6 773d 031f 3fbe a394 333e 8286 1fbe
00000380: 3787 603e 169e eb3d 4839 90bc c4b4 96bd
00000390: 2b9d 763d 72d3 433e b88c 36be 876e 22be
000003a0: 90b7 47be 7c22 753b 60a6 813c 9b2a 8c3d
000003b0: e995 c23d 7bf9 36bd c564 653c 8fd3 18bd
000003c0: 42ba 393e 2f08 693e 29ea 0bbd 68ab b83c
000003d0: 8ca4 0e3e e959 95bb 366b 063e 1de1 853c
000003e0: 231d 433e 712c 6cbe d6d1 603e 88e7 ea3d
000003f0: 654e 263e c79e f7bd 1c06 063e bf4d cd3d

_impl.layers.1.linear.weight_g f4 [64, 1]
0.96779716 1.0465618 1.0519869 1.0483896 0.99217606 0.9489333 1.2237655 1.0970904
1.0398177 1.0463312 1.0328882 0.9706093 1.0237441 1.0717431 0.97861433 1.0007385
1.4477457 0.9788365 1.2669598 1.0003098 1.026926 0.9893208 1.8436203 1.0155284
1.005185 1.3345327 1.2944152 1.0628113 1.2738221 1.0139652 1.1654466 1.0679677
1.0249252 3.0703087 0.9963603 1.0894357 1.0105376 1.16955 1.0863267 1.2041146
1.1692394 1.1614639 1.0872662 2.0166721 0.9677463 0.9941589 1.0024937 0.97907865
1.0166857 1.1074212 1.1770089 0.99098516 1.0065924 1.0286161 1.0184268 1.4367982
1.043046 1.5734656 0.99846447 1.6277592 1.0014096 1.0234435 1.4319133 1.023938
00000000: 8ec1 773f bdf5 853f 82a7 863f a131 863f
00000010: 40ff 7d3f 4bed 723f 59a4 9c3f 756d 8c3f
00000020: bf18 853f 2eee 853f ae35 843f da79 783f
00000030: 0c0a 833f e12e 893f 7886 7a3f 3318 803f
00000040: bb4f b93f 0795 7a3f bd2b a23f 270a 803f
00000050: 5072 833f 2144 7d3f c0fb eb3f d6fc 813f
00000060: e7a9 803f f8d1 aa3f 66af a53f 330a 883f
00000070: 9a0c a33f 9dc9 813f 5b2d 953f 2ab3 883f
00000080: c030 833f f07f 4440 7811 7f3f a172 8b3f
00000090: 4c59 813f d0b3 953f c10c 8b3f 6d20 9a3f
000000a0: a3a9 953f d9aa 943f 8a2b 8b3f 2811 0140
000000b0: 39be 773f 3381 7e3f b751 803f e6a4 7a3f
000000c0: c222 823f fabf 8d3f 3aa8 963f 34b1 7d3f
000000d0: 05d8 803f b1a9 833f cf5b 823f 01e9 b73f
000000e0: 8882 853f 5267 c93f 5e9b 7f3f 6a5a d03f
000000f0: 312e 803f 3200 833f ef48 b73f 6610 833f

_impl.layers.1.linear.bias f4 [64]
-0.01755017 0.119527966 0.20893452 0.019167146 -0.0067039565 -0.035143 0.06794869 -0.059340984
0.026439432 0.00423929 -0.01296402 -0.017972622 0.050825596 0.038106278 -0.0125504825 -0.011397562
-0.111935176 -0.042829867 -0.14967081 0.049165294 -0.08432215 0.009000477 -0.21740022 -0.055165835
0.0055344896 -0.1315205 -0.4096474 -0.028412815 -0.054983277 0.021548001 -0.087011695 0.0011208989
-0.009933116 -0.14836393 -0.03721022 -0.06870815 0.004446945 -0.023534518 -0.011281665 0.13271728
0.106065534 -0.26027268 0.038236465 0.40118885 0.071760565 0.023528906 0.14619552 0.0017408881
0.04120079 -0.07532518 0.09454496 0.03442297 -0.008798113 -0.065652594 -0.095171064 -0.060067717
0.16477703 0.006760909 -0.0014426567 0.010423498 0.044995487 -0.0272591 0.18104753 0.027234223
00000000: 60c5 8fbc 14cb f43d eef2 553e 6b04 9d3c
00000010: ddac dbbb 1bf2 0fbd af28 8b3d 880f 73bd
00000020: 8297 d83c bee9 8a3b 0a67 54bc 523b 93bc
00000030: 802e 503d 5415 1c3d 8aa0 4dbc d7bc 3abc
00000040: 453e e5bd 5f6e 2fbd 4e43 19be 8c61 493d
00000050: 17b1 acbd bd76 133c 2a9e 5ebe 92f5 61bd
00000060: aa5a b53b 4fad 06be 4ebd d1be fec1 e8bc
00000070: 2536 61bd 6f85 b03c 3033 b2bd 20eb 923a
00000080: 82be 22bc b7ec 17be be69 18bd dcb6 8cbd
00000090: aeb7 913b 76cb c0bc bcd6 38bc 0ae7 073e
000000a0: e338 d93d 7642 85be d79d 1c3d a068 cd3e
000000b0: 34f7 923d b1bf c03c 47b4 153e 832e e43a
000000c0: 29c2 283d 1744 9abd caa0 c13d 1aff 0c3d
000000d0: f625 10bc de74 86bd 0ce9 c2bd 9109 76bd
000000e0: 4fbb 283e 9e8a dd3b 8717 bdba 52c7 2a3c
000000f0: 304d 383d 7a4e dfbc 8664 393e 4e1a df3c

_impl.layers.2.linear.weight f4 [64, 64]
-0.17332114 0.14602332 0.19065927 -0.090796836 -0.033000745 -0.02092016 -0.1466437 -0.10482911
0.062799916 0.0821233 0.11125878 -0.0058524795 -0.18300271 -0.10957888 0.04508787 0.16610724
-0.009341694 0.10365054 -0.22933623 0.17977001 0.20752747 0.18282837 -0.13792132 -0.22685182
0.015898095 -0.03731901 0.06381248 0.05799687 0.06892354 -0.026676148 -0.16026965 -0.02395398
-0.1439518 -0.10883578 0.026489127 -0.10026378 0.14116427 -0.123078905 -0.030632693 0.056485325
0.21507333 0.04713819 0.13929932 -0.026613709 0.17508255 -0.0121760005 0.20421688 0.013777313
-0.054615483 0.109181516 0.078522086 -0.078906536 -0.13444221 0.13014941 0.14008261 -0.029321576
0.20208505 -0.029144537 -0.14302969 0.2137758 -0.085662946 0.16704315 0.09260574 -0.22874029
0.11963226 -0.15054986 0.12430845 -0.29252937 0.13440311 0.09535535 -0.035371106 -0.22570628
0.15019645 0.01731398 -0.11453979 0.07304754 0.22479774 0.18071419 -0.13635623 -0.018542353
0.08649821 -0.2733591 0.07300865 0.17934582 -0.15405855 0.21888891 -0.22454953 -0.21193029
-0.05147656 -0.051774908 -0.016085383 -0.027225198 -0.3167294 0.001101725 0.07376658 0.15257487
0.040952075 0.19385853 -0.045617655 0.030642824 0.00777022 0.10795494 0.028204355 0.15657778
-0.02139987 -0.27739006 0.17479238 0.24563907 -0.053017393 -0.046512973 0.24500889 -0.2792443
0.049106702 -0.17785935 -0.14881979 0.075830586 0.0923343 0.029025314 0.04888321 0.0049329223
-0.044665918 0.2078173 0.19865786 0.060556248 0.18683001 0.070907846 -0.034033414 -0.18851084
-0.0332886 0.09979646 -0.19648843 0.20788854 0.15228602 -0.13891865 0.048629127 0.08660201
-0.22877191 -0.23572282 -0.06760877 -0.13046287 -0.043913566 0.18137968 -0.102575324 -0.20832515
-0.10860499 -0.122307114 0.11561519 -0.12100569 0.014606826 -0.13878521 -0.19750361 0.15820432
-0.16896537 -0.026989574 -0.11825697 -0.14678496 0.016136063 -0.09252567 -0.10425378 0.14254653
0.008942365 0.14156747 0.09433717 0.09937458 -0.15695235 -0.049403682 -0.099885695 0.11931033
0.12595756 0.05075142 0.16352545 -0.16354471 0.13422963 -0.0031757609 -0.048201207 0.024917176
0.11600545 0.15325557 -0.08051982 0.07775544 -0.023226915 0.15934777 0.21014774 0.18036805
-0.14418292 -0.2146565 -0.10663506 0.024504153 0.22766504 -0.11443856 -0.12941515 -0.019162044
0.022006087 0.023165604 0.12257337 0.031311594 -0.18585795 0.15664494 0.02916543 -0.1782466
-0.14677165 -0.034367982 -0.16345696 -0.17708422 -0.13829301 0.09810858 0.0047820723 0.015235912
0.11890441 0.20216021 0.23239595 0.10005699 0.04807251 -0.11221137 -0.023016721 0.14003643
0.17412868 0.19457953 -0.1005575 -0.04271183 -0.051507894 0.11800183 0.13145693 -0.10952811
-0.11564133 0.10198263 0.044319462 0.084805414 -0.16555458 0.13562554 -0.18011287 -0.16178595
0.05895911 0.08624553 0.11201159 0.07479995 0.02105191 -0.11640901 -0.075622864 -0.06477177
-0.12724869 -0.1500007 -0.052429575 -0.13890497 0.022482708 -0.06321324 -0.15719067 0.16691986
0.11972226 -0.1583092 0.1392328 0.086510226 -0.085367724 -0.14263107 -0.15710837 -0.12603058
00000000: 197b 31be 2387 153e 2f3c 433e b1f3 b9bd
00000010: ca2b 07bd c160 abbc c429 16be a5b0 d6bd
00000020: 3e9d 803d 4330 a83d a5db e33d 28c6 bfbb
00000030: 1065 3bbe e46a e0bd 0fae 383d 0418 2a3e
00000040: e80d 19bc bc46 d43d 1ed7 6abe a115 383e
00000050: 1582 543e 5c37 3b3e 3f3b 0dbe d84b 68be
00000060: b93c 823c d1db 18bd 1eb0 823d 208e 6d3d
00000070: c927 8d3d f087 dabc ba1d 24be 233b c4bc
00000080: 1a68 13be 4be5 debd baff d83c 1957 cdbd
00000090: 5e8d 103e cb10 fcbd 6af1 fabc 285d 673d
000000a0: 2f3c 5c3e fa13 413d 7ba4 0e3e fe04 dabc
000000b0: d748 333e d97d 47bc 3b1e 513e 3dba 613c
000000c0: 7cb4 5fbd 8f9a df3d 30d0 a03d c099 a1bd
000000d0: 38ab 09be e345 053e d171 0f3e cd33 f0bc
000000e0: 62ef 4e3e 86c0 eebc 6076 12be 0be8 5a3e
000000f0: 0e70 afbd 5c0d 2b3e 14a8 bd3d e53a 6abe
00000100: c201 f53d be29 1abe 6e95 fe3d 69c6 95be
00000110: f8a0 093e aa49 c33d 4be1 10bd 8c1f 67be
00000120: 19cd 193e 0cd6 8d3c d693 eabd f399 953d
00000130: 6131 663e 240d 393e f8a0 0bbe 22e6 97bc
00000140: f925 b13d b9f5 8bbe 8f85 953d 6ea6 373e
00000150: 86c1 1dbe 6a24 603e 50f0 65be 4104 59be
00000160: 16d9 52bd ed11 54bd 7ec5 83bc 6107 dfbc
00000170: 5b2a a2be c267 903a ef12 973d 963c 1c3e
00000180: 5dbd 273d da82 463e 94d9 3abd a906 fb3c
00000190: 549d fe3b 7b17 dd3d d20c e73c ed55 203e
000001a0: c84e afbc 1206 8ebe c6fc 323e cf88 7b3e
000001b0: c428 59bd 6384 3ebd 9ce3 7a3e 1cf9 8ebe
000001c0: 1c24 493d c320 36be 3764 18be 114d 9b3d
000001d0: c419 bd3d 7fc6 ed3c c339 483d 5aa4 a13b
000001e0: 9cf3 36bd 0fce 543e f76c 4b3e d409 783d
000001f0: 5e50 3f3e 2238 913d 9f66 0bbd fc08 41be
00000200: a159 08bd 1662 cc3d 4334 49be bce0 543e
00000210: def0 1b3e b140 0ebe 562f 473d 655c b13d
00000220: 2f43 6abe 5361 71be 7876 8abd 0f98 05be
00000230: b6de 33bd 98bb 393e 0313 d2bd 3053 55be
00000240: 4b6c debd 277c fabd a8c7 ec3d d5d1 f7bd
00000250: 7851 6f3c b61d 0ebe 633e 4abe 5000 223e
00000260: 4205 2dbe 3d19 ddbc b630 f2bd cc4e 16be
00000270: c72f 843c 197e bdbd 0183 d5bd b8f7 113e
00000280: ff82 123c 10f7 103e d933 c13d e684 cb3d
00000290: 1eb8 20be 845b 4abd df90 ccbd f958 f43d
000002a0: 05fb 003e b9e0 4f3d 3773 273e 4478 27be
000002b0: 7e73 093e 6d20 50bb a16e 45bd 1b1f cc3c
000002c0: 4494 ed3d 07ef 1c3e 93e7 a4bd 3e3e 9f3d
000002d0: 5f46 bebc 102c 233e f830 573e 67b2 383e
000002e0: b0a4 13be eace 5bbe 7b63 dabd efbc c83c
000002f0: 0621 693e c45e eabd 6885 04be b8f9 9cbc
00000300: 1c46 b43c cbc5 bd3c bf07 fb3d 9640 003d
00000310: 8c51 3ebe 8867 203e 57ec ee3c 4786 36be
00000320: 4f4b 16be 71c5 0cbd 4361 27be 9155 35be
00000330: af9c 0dbe 27ed c83d eeb2 9c3b 0ca0 793c
00000340: 2884 f33d 1603 4f3e 34f9 6d3e aeea cc3d
00000350: aee7 443d 13cf e5bd 908d bcbc b665 0f3e
00000360: ca4e 323e db3f 473e 17f1 cdbd 9af2 2ebd
00000370: f1f9 52bd f2aa f13d a59c 063e 4650 e0bd
00000380: 5dd5 ecbd 45dc d03d 5388 353d 76ae ad3d
00000390: 2487 29be 6ce1 0a3e 826f 38be 37ab 25be
000003a0: 1c7f 713d 7fa1 b03d 5566 e53d b730 993d
000003b0: 0e75 ac3c d967 eebd 29e0 9abd 10a7 84bd
000003c0: 7b4d 02be c999 19be 65c0 56bd 1b3d 0ebe
000003d0: a82d b83c f175 81bd 97f6 20be 0aed 2a3e
000003e0: f230 f53d cf1b 22be 0b93 0e3e 462c b13d
000003f0: 46d5 aebd e10d 12be 04e1 20be 290e 01be

_impl.layers.2.linear.weight_g f4 [64, 1]
1.1205063 1.0542781 1.043589 1.1056131 1.1050738 1.045357 0.9812665 1.3573074
1.0183922 1.3105618 0.9631525 1.0051869 1.1449906 1.0388501 1.6604172 1.037195
1.0580816 1.1530023 1.0057406 1.198538 0.9685452 1.0425286 1.508401 0.996758
0.9980465 1.0096031 0.97851056 1.2700169 0.9923335 0.9808008 0.9865175 1.0286539
1.3345525 1.2438214 1.0756443 1.0401666 0.9786506 0.9971698 1.2161026 0.987327
1.0745339 1.0479947 1.2382674 1.0197132 1.0437477 1.0210598 3.8403826 0.9790457
1.1403259 1.00032 1.0128881 1.0553602 1.1352344 1.024598 0.97930354 1.7506505
1.9386737 1.1515937 1.0089853 2.165505 0.9919749 1.0205196 0.9830572 1.117429
00000000: c06c 8f3f 96f2 863f 5394 853f bb84 8d3f
00000010: 0f73 8d3f 42ce 853f 4834 7b3f 40bc ad3f
00000020: ad5a 823f 7dc0 a73f 2a91 763f f7a9 803f
00000030: 0d8f 923f 0af9 843f 8d88 d43f cec2 843f
00000040: 386f 873f 9495 933f 1cbc 803f b169 993f
00000050: 94f2 773f 9471 853f 4913 c13f 882b 7f3f
00000060: fa7f 7f3f ad3a 813f ab7f 7a3f ea8f a23f
00000070: 9109 7e3f c315 7b3f 698c 7c3f eeaa 833f
00000080: 9ed2 aa3f 8a35 9f3f b6ae 893f 2e24 853f
00000090: d988 7a3f 8546 7f3f 40a9 9b3f 76c1 7c3f
000000a0: 548a 893f b124 863f 8c7f 9e3f f685 823f
000000b0: 8699 853f 16b2 823f d4c8 7540 bda2 7a3f
000000c0: 33f6 913f 7c0a 803f 51a6 813f 0b16 873f
000000d0: 5c4f 913f 0726 833f a3b3 7a3f 5115 e03f
000000e0: 7626 f83f 6c67 933f 6e26 813f a297 0a40
000000f0: 11f2 7d3f 63a0 823f a3a9 7b3f ea07 8f3f

_impl.layers.2.linear.bias f4 [64]
0.017297564 0.08643525 -0.042721618 -0.021585273 -0.008881611 0.018938797 0.017541701 -0.049344353
0.00709947 0.008383975 -0.006224737 0.0029042643 -0.019542817 0.017244548 -0.1691045 -0.004238752
0.0124157425 -0.080891676 -0.06536115 0.0141816735 0.008600823 0.03042737 0.07415374 -0.023189949
0.0106853815 -0.012965857 0.0011888611 0.005087676 -0.05300832 0.0147975795 -0.01730829 -0.015805088
-0.02366143 0.048878692 0.018149571 0.09570713 0.0020503206 0.02539065 -0.044233564 0.01302039
-0.032421708 -0.012055323 0.088641234 -0.028208476 -0.008988038 -0.0822098 -0.26041692 0.00023650296
0.010080219 -0.010772201 -0.04292179 -0.043270707 0.112207904 0.00836646 0.01766605 0.021645442
0.06854656 0.010270253 0.0033649646 0.09533837 -0.04150603 0.0010636537 -0.032209013 0.0009646154
00000000: 9fb3 8d3c f704 b13d ddfc 2ebd 99d3 b0bc
00000010: 2d84 11bc 8925 9b3c 9db3 8f3c 4e1d 4abd
00000020: aca2 e83b f15c 093c e1f8 cbbb 7855 3e3b
00000030: 4218 a0bc 7044 8d3c bb29 2dbe 3be5 8abb
00000040: 666b 4b3c 89aa a5bd 11dc 85bd 405a 683c
00000050: 77ea 0c3c d242 f93c ebdd 973d d9f8 bdbc
00000060: bd11 2f3c bf6e 54bc 8fd3 9b3a 85b6 a63b
00000070: 411f 59bd 8c71 723c 1dca 8dbc ac79 81bc
00000080: 9ed5 c1bc 0635 483d 69ae 943c 1a02 c43d
00000090: ac5e 063b 0d00 d03c 412e 35bd 7953 553c
000000a0: a0cc 04bd b183 45bc 8989 b53d 7615 e7bc
000000b0: 9042 13bc 9d5d a8bd 5e55 85be c8fd 7739
000000c0: 8127 253c e37d 30bc c2ce 2fbd a03c 31bd
000000d0: 42cd e53d 7a13 093c 64b8 903c c851 b13c
000000e0: 2462 8c3d 9044 283c bd86 5c3b c340 c33d
000000f0: 3a02 2abd 4c6a 8b3a 99ed 03bd 3ede 7c3a

_impl.layers.3.linear.weight f4 [64, 64]
-0.030655649 -0.20186624 0.08963437 0.04073641 0.08713222 -0.1390133 0.14904279 0.09812706
0.13161147 -0.1513564 0.19977796 0.115196444 -0.04430273 0.16530167 -0.22421436 0.010726196
0.13715525 -0.20132194 -0.14453685 -0.11825901 0.16353555 0.14251834 -0.18917683 -0.025718639
-0.20041883 -0.00725777 0.16517632 0.113142475 0.1028061 -0.028481308 -0.011206963 0.08810694
0.100923076 -0.19218929 0.080857396 0.045849115 0.13497216 0.013292113 -0.14848462 -0.005058188
0.22766571 -0.04052304 -0.07231322 0.052871108 0.113060795 -0.06257684 0.063568406 -0.08467299
0.18959583 0.052603208 0.05715437 0.11739118 0.19630112 0.13436481 0.03969115 -0.07530766
-0.06906458 0.054168414 -0.11303202 0.034615792 0.12704505 -0.22761697 -0.10981066 -0.031465404
0.21504538 -0.09703512 0.15061235 0.18256319 0.041640423 -0.187397 0.06208541 0.055080596
-0.11904889 0.14584713 -0.19291605 0.06988118 -0.061021168 0.013233706 -0.26258272 0.10435892
0.07082763 0.19578849 -0.22163284 -0.033932526 -0.024982003 -0.1677775 0.19855148 0.12682717
0.026644694 0.094035484 -0.07436266 -0.25893703 -0.23641971 -0.19888277 -0.14622673 0.023833958
0.13291898 -0.15481943 0.2553949 -0.013733289 -0.017738793 -0.19165324 -0.17805198 -0.13773994
-0.20209879 0.19338073 0.17860876 -0.074745126 -0.03744252 0.12806466 -0.13823491 -0.02421301
0.1468258 0.108456366 0.065481395 -0.08679656 0.11578604 0.024556879 0.09205661 -0.037309445
0.06126127 -0.07542719 -0.14971396 0.0204463 0.18550368 -0.18635541 -0.16837041 0.10170907
-0.021626 -0.022057986 0.04387593 -0.20627606 0.16467264 0.1775987 -0.11226889 -0.20185885
0.08133888 0.09984627 0.124129996 0.13130799 0.042093825 -0.15738706 0.17743853 0.098989524
0.009613485 -0.15790386 -0.17138517 0.16020486 0.17734645 -0.057743333 -0.20869005 -0.057595875
-0.10524023 -0.169315 0.049765956 0.23185438 0.0402471 0.21290104 -0.048531957 -0.097009785
-0.07822065 -0.15982108 -0.11441877 -0.16803798 -0.076374695 0.0063546184 0.1033775 0.084763035
0.092940904 -0.025900302 -0.1585763 -0.106371686 -0.19865893 0.20104624 -0.15945508 -0.089499615
0.21428888 -0.0721669 0.06118048 0.0062351767 -0.17527278 -0.029730344 0.12237951 0.15235323
0.15749294 0.16886005 -0.17234525 -0.086434744 0.09139364 0.051284228 -0.17621161 0.02353664
0.006511936 -0.039156817 0.113523275 0.10923275 0.030344881 -0.07419222 -0.13772988 -0.17157346
0.0027640755 0.059975807 -0.019706251 0.12047397 0.044606682 -0.097773224 -0.09389644 0.008061777
-0.07375995 0.09593765 -0.18235867 0.11150157 0.016533935 -0.15253514 -0.027690204 -0.06869649
-0.069304585 -0.037247755 -0.05063208 -0.023433562 0.09183788 0.04658819 0.18248065 0.03788257
-0.20630836 0.04857492 0.13454792 -0.047532488 0.020289142 -0.04420587 -0.1757167 -0.10018009
-0.021497251 -0.055670172 -0.017569438 0.10534239 0.19654083 0.035810586 0.3470023 -0.021407835
0.20626467 -0.23527087 0.08220857 0.07637036 -0.023917366 -0.036296852 0.18274546 0.2235082
0.13377844 -0.16089448 -0.09260603 -0.20294723 0.10565424 -0.028226336 0.001006499 -0.0631585
00000000: 8e21 fbbc 06b6 4ebe 3992 b73d 39db 263d
00000010: 6172 b23d 8159 0ebe ac9e 183e d7f6 c83d
00000020: 28c5 063e 2cfd 1abe 9892 4c3e 1dec eb3d
00000030: c876 35bd d744 293e 7398 65be edbc 2f3c
00000040: 6d72 0c3e 5727 4ebe 7801 14be c831 f2bd
00000050: dd75 273e 54f0 113e 92b7 41be e5af d2bc
00000060: 983a 4dbe 96d2 edbb fb23 293e 3eb7 e73d
00000070: 018c d23d a251 e9bc 699d 37bc 6971 b43d
00000080: c2b0 ce3d 45cd 44be 9098 a53d 48cc 3b3d
00000090: 2436 0a3e 2ac7 593c 5a0c 18be 28bf a5bb
000000a0: 3321 693e 7dfb 25bd f418 94bd 608f 583d
000000b0: 6b8c e73d 4928 80bd 2730 823d 0869 adbd
000000c0: 6925 423e 7676 573d b31a 6a3d c96a f03d
000000d0: 2903 493e ee96 093e 3093 223d e73a 9abd
000000e0: bb71 8dbd b3df 5d3d 557d e7bd 4ac9 0d3d
000000f0: 1918 023e 6c14 69be 69e4 e0bd dee1 00bd
00000100: db34 5c3e 59ba c6bd 203a 1a3e d8f1 3a3e
00000110: 268f 2a3d 00e5 3fbe 454d 7e3d 319c 613d
00000120: e8cf f3bd f358 153e c98b 45be dd1d 8f3d
00000130: 55f1 79bd 30d2 583c 3e71 86be 21ba d53d
00000140: 140e 913d c77c 483e b8f3 62be d5fc 0abd
00000150: 0fa7 ccbc ddcd 2bbe 1451 4b3e fbde 013e
00000160: f945 da3c ad95 c03d 734b 98bd 6593 84be
00000170: 0218 72be eda7 4bbe 76bc 15be 6f3f c33c
00000180: ea1b 083e fc88 1ebe 1fc3 823e 9701 61bc
00000190: f250 91bc bf40 44be 4253 36be b30b 0dbe
000001a0: fcf2 4ebe 9905 463e 37e5 363e f913 99bd
000001b0: 545d 19bd 6223 033e 748d 0dbe 5d5a c6bc
000001c0: 8159 163e 5f1e de3d 1c1b 863d 65c2 b1bd
000001d0: 3b21 ed3d 822b c93c 2d88 bc3d cad1 18bd
000001e0: 19ed 7a3d 9279 9abd 9e4e 19be 007f a73c
000001f0: adf4 3d3e f4d3 3ebe 4b69 2cbe d84c d03d
00000200: 0229 b1bc f3b2 b4bc 3fb7 333d 083a 53be
00000210: f29f 283e 6fdc 353e 3bed e5bd 16b4 4ebe
00000220: 0095 a63d 347c cc3d de37 fe3d 9a75 063e
00000230: 936a 2c3d 132a 21be 72b2 353e 05bb ca3d
00000240: e181 1d3c 8db1 21be 987f 2fbe be0c 243e
00000250: 4f9a 353e 4684 6cbd d8b2 55be a7e9 6bbd
00000260: 3188 d7bd e960 2dbe 63d7 4b3d 3c6b 6d3e
00000270: 25da 243d bb02 5a3e 72c9 46bd 11ad c6bd
00000280: 2632 a0bd 23a8 23be 6354 eabd 2612 2cbe
00000290: 566a 9cbd 673a d03b 95b7 d33d 3e98 ad3d
000002a0: cd57 be3d df2c d4bc d361 22be 66d9 d9bd
000002b0: 3f6d 4bbe 11df 4d3e 3148 23be 934b b7bd
000002c0: 8b6e 5b3e 3dcc 93bd 6298 7a3d 7450 cc3b
000002d0: b57a 33be 0d8d f3bc 1ca2 fa3d 7c02 1c3e
000002e0: d445 213e a6e9 2c3e 467b 30be b304 b1bd
000002f0: 972c bb3d 690f 523d d170 34be e9cf c03c
00000300: 1462 d53b e662 20bd e47e e83d 6cb5 df3d
00000310: d495 f83c 17f2 97bd 1009 0dbe f4b0 2fbe
00000320: 7e25 353b 31a9 753d 016f a1bc 0fbb f63d
00000330: 7fb5 363d 543d c8bd c74c c0bd 8b15 043c
00000340: 750f 97bd f57a c43d 3bbc 3abe ef5a e43d
00000350: 2d72 873c 2c32 1cbe 91d6 e2bc bfb0 8cbd
00000360: 90ef 8dbd 1a91 18bd 9563 4fbd bef7 bfbc
00000370: 8015 bc3d 42d3 3e3d 35dc 3a3e c12a 1b3d
00000380: 8042 53be 7ff6 463d eec6 093e 6db1 42bd
00000390: 6a35 a63c 3711 35bd 14ef 33be 382b cdbd
000003a0: 011b b0bc 6806 64bd c8ed 8fbc c0bd d73d
000003b0: 0042 493e 1fae 123d 49aa b13e 7c5f afbc
000003c0: 0c37 533e d9ea 70be f75c a83d 1068 9c3d
000003d0: 5aee c3bc 02ac 14bd a021 3b3e 55df 643e
000003e0: 37fd 083e 86c1 24be 3ba8 bdbd 66d1 4fbe
000003f0: 4061 d83d eb3a e7bc 81ec 833a 3e59 81bd

_impl.layers.3.linear.weight_g f4 [64, 1]
0.96333396 1.0078216 0.9606038 1.1848868 1.1450582 1.0653429 0.98815906 0.94232595
0.9748673 0.9917297 1.041966 1.0238547 1.2547556 1.012381 1.0277069 1.0358464
1.0155475 0.9985555 1.0575545 0.95795834 1.0276141 1.0719128 1.0240053 0.94943315
1.0965195 1.6808074 1.0271094 0.96776307 1.7716029 0.9703604 1.0310637 1.1193485
0.96361506 0.9572625 1.0616059 0.91977465 1.139468 0.99899733 0.9428808 0.9965437
1.0083293 1.1639541 1.1957418 0.9509438 1.3151504 0.9737064 1.0910251 1.0624222
1.0131218 1.170922 0.9857336 1.0893397 0.9991026 1.0188749 1.0706949 1.0471799
1.1391594 1.4432069 1.0316263 1.0175853 1.027704 1.0880228 1.101403 0.9994923
00000000: 0e9d 763f 4c00 813f 21ea 753f 5faa 973f
00000010: 4491 923f 285d 883f fef7 7c3f 463c 713f
00000020: e790 793f ffe1 7d3f 245f 853f ac0d 833f
00000030: d59b a03f b395 813f e68b 833f 9d96 843f
00000040: 76fd 813f 55a1 7f3f f25d 873f c23c 753f
00000050: dc88 833f 7034 893f 9b12 833f 0d0e 733f
00000060: c05a 8c3f b224 d73f 5278 833f 52bf 773f
00000070: e2c3 e23f 8a69 783f e5f9 833f d046 8f3f
00000080: 7aaf 763f 280f 753f b4e2 873f 5a76 6b3f
00000090: 16da 913f 4abe 7f3f a360 713f 7d1d 7f3f
000000a0: ef10 813f 73fc 943f 110e 993f 0e71 733f
000000b0: d956 a83f d344 793f b6a6 8b3f 73fd 873f
000000c0: faad 813f c6e0 953f 0a59 7c3f 7c6f 8b3f
000000d0: 30c5 7f3f 7e6a 823f 880c 893f fe09 863f
000000e0: facf 913f 01bb b83f 550c 843f 3c40 823f
000000f0: ce8b 833f 5544 8b3f c6fa 8c3f bade 7f3f

_impl.layers.3.linear.bias f4 [64]
-0.010772128 0.016615653 0.02581758 0.013906779 0.048596583 -0.0290571 -0.021023838 0.00063172315
-0.022145638 -0.0011561043 0.034667112 -0.008630269 -0.026026148 0.00028012597 0.057545163 -0.06887885
-0.011659874 0.014068867 0.011356528 0.0057042753 0.021143671 0.012297526 0.031258058 -0.0019593614
-0.050562944 -0.04833235 -0.009688245 0.0050662584 0.0485366 -0.011377068 -0.05314113 -0.004599997
-0.012065802 -0.0014756805 0.028206047 -0.018529657 -0.016482351 0.016094206 0.004672188 0.05921486
0.0061865184 0.0117531 -0.033397935 0.052618302 0.03650242 0.009249614 0.021368008 0.012682836
0.008721167 0.0072556343 0.00053291925 0.0013689684 0.019336343 -0.003895168 0.010354036 0.024880014
-0.03885095 0.009881523 0.012496544 0.012684411 -0.00870926 0.01439924 0.011029618 -0.010307884
00000000: 947d 30bc 8d1d 883c 647f d33c 42d9 633c
00000010: 360d 473d 2809 eebc 2f3a acbc 399a 253a
00000020: c56a b5bc 6c88 97ba 1aff 0d3d f965 0dbc
00000030: ca34 d5bc dfdd 9239 7ab4 6b3d 5b10 8dbd
00000040: 0e09 3fbc 1b81 663c bb10 3a3c eeea ba3b
00000050: 7e35 ad3c 907b 493c 7308 003d a168 00bb
00000060: 171b 4fbd 24f8 45bd 72bb 1ebc db02 a63b
00000070: 50ce 463d e266 3abc 83aa 59bd 92bb 96bb
00000080: a4af 45bc 9f6b c1ba 5e10 e73c 82cb 97bc
00000090: ff05 87bc ffd7 833c 2719 993b 488b 723d
000000a0: 47b8 ca3b 1390 403c 46cc 08bd 4a86 573d
000000b0: 9083 153d b18b 173c f60b af3c abcb 4f3c
000000c0: 3ae3 0e3c acc0 ed3b 9bb3 0b3a f56e b33a
000000d0: 4067 9e3c 1346 7fbb faa3 293c 2cd1 cb3c
000000e0: 2c22 1fbd 1de6 213c 4ebe 4c3c 47d2 4f3c
000000f0: 49b1 0ebc caea 6b3c 92b5 343c 66e2 28bc

_impl.final_layer.linear.weight f4 [1, 64]
-0.048607517 -0.1741167 -0.0015078285 0.09041486 -0.16950662 0.2008035 -0.030763077 0.20997003
-0.22347425 -0.03128086 -0.24783102 -0.19974421 -0.1817675 -0.13479495 0.09321876 -0.055914193
-0.09793137 0.28644192 0.1285776 0.11810027 -0.08461158 0.31319955 0.25753215 0.00092807185
-0.10734833 0.05772963 0.053930484 -0.00078810164 0.07338055 -0.12712519 -0.2245566 -0.25303155
-0.10013351 -2.67981e-05 0.24049984 -0.20751102 -0.055849686 0.19408803 0.0014455637 0.11840645
-0.21643615 0.19790822 0.10926986 0.0002827508 -0.32805306 0.00067047135 0.28257385 0.28011918
0.23361582 -0.04255522 0.060851816 0.16811194 -0.079464026 0.15158252 -0.22643876 -0.28885612
-0.33570528 -0.07803494 -0.20076527 0.20995633 -0.123434216 0.3177473 -0.31460455 -0.28362903
00000000: ad18 47bd a64b 32be 54a2 c5ba 6d2b b93d
00000010: 2593 2dbe 6f9f 4d3e d902 fcbc 6202 573e
00000020: 6fd6 64be 5c20 00bd 6ac7 7dbe bf89 4cbe
00000030: 4221 3abe b007 0abe 7ae9 be3d 4806 65bd
00000040: 3e90 c8bd 84a8 923e d9a9 033e 8ede f13d
00000050: d648 adbd b15b a03e 41db 833e d949 733a
00000060: 71d9 dbbd e875 6c3d 36e6 5c3d 9b98 4eba
00000070: 8b48 963d 1b2d 02be 2af2 65be 5a8d 81be
00000080: cc12 cdbd 7bcc e0b7 9745 763e c57d 54be
00000090: a4c2 64bd 03bf 463e 1279 bd3a 157f f23d
000000a0: 70a1 5dbe 74a8 4a3e e0c8 df3d 2c3e 9439
000000b0: 92f6 a7be 92c2 2f3a 85ad 903e c86b 8f3e
000000c0: fc38 6f3e 624e 2ebd c13f 793d 8925 2c3e
000000d0: 09be a2bd 7338 1b3e 90df 67be f3e4 93be
000000e0: 90e1 abbe c8d0 9fbd 6995 4dbe cbfe 563e
000000f0: 14cb fcbd c6af a23e d913 a1be d337 91be
