PINNs/model_saved/reg2d_B/u_network.0.pth (torch, 26694 bytes, 10 tensors)

_impl.layers.0.linear.weight f4 [50, 2]
0	0xbe78c0ee	-0.24292347
1	0xbea7e060	-0.32788372
2	0x3dc7bae1	0.09752441
3	0x3c221e3e	0.009894906
4	0x3d0175be	0.03160643
5	0xbed325e2	-0.4123984
6	0xbe4acdb8	-0.19805038
7	0xbbf2bf34	-0.007408047
8	0xbec17320	-0.37783146
9	0xbd890f9f	-0.066924326
10	0x3f018d72	0.50606453
11	0x3dcf06e5	0.10108737
12	0x3ecd22b4	0.4006554
13	0xbba0f8b6	-0.004912461
14	0x3db476bc	0.08811709
15	0x3c7f99a0	0.015600592
16	0xbed33dac	-0.4125799
17	0x3b20a748	0.002451377
18	0x3e40a58d	0.18813153
19	0xbbf4f2a6	-0.007475215
20	0xbd5d9a2d	-0.05410211
21	0xbf07e655	-0.53085834
22	0x3b0a0db4	0.0021065297
23	0x3e20104b	0.15631215
24	0xbddff301	-0.10935021
25	0x3e804ec7	0.25060102
26	0xbe7bfa18	-0.24607122
27	0x3be182cb	0.006882047
28	0x3ced3cc7	0.028959645
29	0x3e65bdd3	0.22435693
30	0x3e9cd38a	0.30630141
31	0x3d83a33e	0.0642762
32	0x3c8e13b9	0.017343389
33	0x3ec313eb	0.38101134
34	0xbeca31d8	-0.39491153
35	0x3c3df396	0.01159372
36	0xba509f67	-0.0007958323
37	0x3e9247cd	0.28570405
38	0x3c4c3634	0.012464095
39	0xbe5e553d	-0.21712203
40	0x3eb013c0	0.34390068
41	0x3add639c	0.0016890648
42	0xbe1cfa12	-0.15329769
43	0xb935b175	-0.00017327613
44	0xbcd2b623	-0.025721615
45	0xbe89e52b	-0.26932654
46	0xbd6658c3	-0.056236994
47	0x3ed00be8	0.40634084
48	0xbe4cdeb6	-0.20006832
49	0x3e9b1dc9	0.30296162
50	0x3e437d45	0.19090755
51	0xbcd14125	-0.025543759
52	0xbcf18ca5	-0.02948601
53	0xbe9dec65	-0.30844417
54	0x3ece3e3d	0.4028186
55	0x3bbe000a	0.0057983445
56	0x3eee7b5b	0.46578488
57	0xbd75f913	-0.06005199
58	0xbdbc0df7	-0.09182351
59	0x3d7d6fc6	0.061874174
60	0x3e195abd	0.1497602
61	0xbe0bd447	-0.13655196
62	0xbeb09471	-0.34488252
63	0x3c9fcdb2	0.019507263
64	0xbc417ce3	-0.0118095605
65	0x3e0d8270	0.13819289
66	0x3eb46eb2	0.35240704
67	0xb8a00bac	-7.6315686e-05
68	0xbe2fc20f	-0.17163871
69	0x3eb1d720	0.3473444
70	0xbd3bb504	-0.045826927
71	0xbea198d9	-0.31561926
72	0xbdaa3139	-0.0831017
73	0x3ec80a0b	0.39070162
74	0xbda05985	-0.078295745
75	0xbeb1bd08	-0.34714532
76	0x3bec413e	0.007209926
77	0x3e890cdc	0.26767623
78	0xbcc885e0	-0.0244779
79	0xbed3d241	-0.41371349
80	0xbe2ce32e	-0.16883537
81	0x3ee1d204	0.44105542
82	0x3e831ec1	0.256094
83	0x3e89b639	0.26896837
84	0xbeaaeed9	-0.3338535
85	0xbd2f05ff	-0.042730328
86	0x3eea5b0d	0.4577259
87	0xbdebc605	-0.115123786
88	0xbba26d28	-0.00495686
89	0xbeaa7805	-0.33294693
90	0xbc1ed58d	-0.009694469
91	0xbdd8db6b	-0.10588726
92	0x3ef22b6e	0.4729876
93	0xbcb956bd	-0.022624368
94	0x3e9e1464	0.30874932
95	0xbc61052c	-0.013734143
96	0x3e721026	0.23638973
97	0xbbcc63c8	-0.006237481
98	0x3e89be0b	0.26902804
99	0x3c151f4d	0.009101701

_impl.layers.0.linear.weight_g f4 [50, 1]
0	0x3fb060c8	1.3779535
1	0x3f82dc68	1.0223513
2	0x3f5ecb21	0.870287
3	0x3f4faa27	0.81119007
4	0x3f430846	0.761845
5	0x3f2ed558	0.68294287
6	0x3f5467ba	0.82970774
7	0x3f560c7d	0.83612806
8	0x40160cae	2.344524
9	0x3f39a855	0.7252248
10	0x401e322b	2.471812
11	0x3f4e22bf	0.8052177
12	0x3f3ecf72	0.74535286
13	0x3f93e4bb	1.1554178
14	0x3f3beb2a	0.73405707
15	0x3f394751	0.72374445
16	0x3f96f9cd	1.1794983
17	0x3f33c4d2	0.702222
18	0x3f36c71e	0.7139758
19	0x3f6205aa	0.8828989
20	0x3f33ee8d	0.70285875
21	0x3f2be503	0.6714632
22	0x3f6e0262	0.92972386
23	0x3f822ab3	1.0169281
24	0x3f1de602	0.6167909
25	0x3f458029	0.7714868
26	0x3fcddf90	1.6083851
27	0x3f3dcb5d	0.7413843
28	0x3f29c49f	0.66315645
29	0x3f0b12fa	0.5432583
30	0x3f1ff198	0.6247802
31	0x3f475b39	0.7787357
32	0x3fbe6716	1.4875209
33	0x3f996d54	1.1986489
34	0x3f3fa749	0.7486463
35	0x3f75cce6	0.96015775
36	0x400a1ccf	2.1580083
37	0x3f35e0fc	0.71046424
38	0x3fab7dc2	1.3397753
39	0x3f3ac5dd	0.72958165
40	0x3f22a459	0.63532025
41	0x3f3ef4a1	0.74592024
42	0x3f3fa01c	0.7485368
43	0x3f3dce56	0.7414297
44	0x40245989	2.5679648
45	0x3f8a56ee	1.0807779
46	0x3f3398e8	0.7015519
47	0x3f3b30fb	0.73121613
48	0x3f33495f	0.7003383
49	0x3f4b9e78	0.7953868

_impl.layers.0.linear.bias f4 [50]
0	0xbed72d04	-0.42026532
1	0xbf1d869f	-0.6153354
2	0xbe8d3330	-0.27578115
3	0xbeb61286	-0.35561007
4	0x3ec5ba68	0.3861878
5	0xbebcc018	-0.36865306
6	0xbf14ecee	-0.58174026
7	0xbe9b6104	-0.30347455
8	0x3f1346b0	0.57529736
9	0x3d95f41f	0.07321953
10	0xbd6ccfb4	-0.05781527
11	0x3f02ec54	0.5114186
12	0xbebc5ac1	-0.3678799
13	0x3f4dadd0	0.8034334
14	0xbe9e9b4b	-0.30977854
15	0xbba61377	-0.0050682384
16	0x3f37056f	0.71492666
17	0x3e94a17c	0.29029453
18	0xbed3ce05	-0.41368118
19	0xbf2057df	-0.6263408
20	0xbd4abc3c	-0.04949592
21	0x3eaced26	0.3377468
22	0xbefe6ee1	-0.4969397
23	0x3eae35a0	0.34025288
24	0xbea762ee	-0.32692665
25	0xbdb6b48c	-0.08921155
26	0xbf6f5945	-0.9349559
27	0xbf00d989	-0.5033193
28	0xbeb752b0	-0.35805273
29	0xbe9e0500	-0.3086319
30	0xbe0d2a6e	-0.13785717
31	0xbddd131c	-0.107946604
32	0x3f34ddab	0.7065074
33	0xbf56f0e0	-0.83961296
34	0x3e319750	0.17342877
35	0x3f1ad138	0.6047549
36	0xbe54bd32	-0.20775297
37	0x3e90c7c8	0.2827742
38	0x3f6d867b	0.92783326
39	0x3e8e6c9a	0.2781723
40	0x3e3e35f8	0.18575275
41	0x3d19fee8	0.037596613
42	0xbe84e19a	-0.2595337
43	0x3e73f0ac	0.23822278
44	0xbed67364	-0.4188491
45	0x3e428c55	0.18998845
46	0xbee57f91	-0.44823888
47	0xbf01946b	-0.5061709
48	0x3e6e2e77	0.23259912
49	0x3ec71286	0.3888132

_impl.layers.1.linear.weight f4 [50, 50]
0	0xbd325db2	-0.043546386
1	0x3e22698a	0.15860572
2	0x3cc40c21	0.023931565
3	0xbdaadadd	-0.08342526
4	0xbe25fc18	-0.16209447
5	0x3e2042b0	0.1565044
6	0x3e31b1a0	0.17352915
7	0x3e1da40b	0.15394609
8	0x3ed53148	0.4163916
9	0x3df93f4f	0.12170278
10	0xbc321c8e	-0.010871066
11	0xbd2d7f1e	-0.042357557
12	0xbc185ad1	-0.009298996
13	0xbe0104bc	-0.12599462
14	0x3d1179c6	0.035516523
15	0x3df7814e	0.1208521
16	0xbcc4ecfa	-0.02403878
17	0xbe1eab0e	-0.1549494
18	0x3c518e42	0.012790265
19	0x3d579991	0.052636687
20	0x3e086ae5	0.13322027
21	0xbe1fc6dd	-0.15603204
22	0x3c2c7edf	0.010528295
23	0xbcbbc521	-0.022921147
24	0xbcaade13	-0.020857846
25	0x3e0f51f3	0.13996105
26	0x3b84d4d5	0.004053692
27	0x3e2f3acf	0.17112277
28	0x3e205123	0.15655951
29	0xbd725a86	-0.05916836
30	0x3dd33d72	0.10314454
31	0xbdf5b595	-0.11997525
32	0x3c3cece1	0.011531086
33	0x3df4767e	0.11936663
34	0xbd6f5197	-0.05842742
35	0xbd923845	-0.07139639
36	0x3ded5fc3	0.11590531
37	0xbd3d2051	-0.046173397
38	0xbc8dd5cb	-0.017313858
39	0xbc563ed6	-0.013076505
40	0xbd90895b	-0.070574485
41	0x3da3af67	0.0799244
42	0xbdc482f8	-0.09595293
43	0x3dc69ef6	0.09698288
44	0x3deb17e3	0.114791654
45	0xbd194e4d	-0.03742819
46	0x3e294de8	0.16533625
47	0x3e2e4f74	0.17022496
48	0x3dd2330d	0.102636434
49	0x3dab5677	0.08366101
50	0x3d58b2cc	0.05290489
51	0xbd141d0d	-0.036160517
52	0xbd4d263a	-0.050085284
53	0xbd238430	-0.039920986
54	0x3ddd91b3	0.108188055
55	0xbc827934	-0.015926935
56	0x3e210628	0.15725005
57	0x3d6494e3	0.055806052
58	0xbdc57d40	-0.0964303
59	0xbab1fba4	-0.0013579023
60	0xb9d908eb	-0.0004139611
61	0x3e299f67	0.16564713
62	0x3df7545e	0.12076639
63	0x3d6de22d	0.058077026
64	0x3d8adec9	0.06780774
65	0xbd894bb9	-0.06703896
66	0x3e340f77	0.17584024
67	0xbdfed14e	-0.124422655
68	0x3da93083	0.08261206
69	0xbb19b90a	-0.002345624
70	0xbcd08206	-0.025452625
71	0xbdfefa80	-0.12450123
72	0x3d91c0e1	0.07116867
73	0x3e6aecb2	0.22941855
74	0x3e7edb49	0.24888338
75	0xbda3a1ee	-0.0798987
76	0x3e43b8ce	0.19113466
77	0x3e2301fb	0.15918724
78	0x3e0e407c	0.13891786
79	0x3e62197e	0.22080037
80	0xbe1090e7	-0.14117776
81	0x3e2eacd8	0.17058122
82	0x3d6168fa	0.055031754
83	0x3dd285bb	0.10279413
84	0xbdd6df58	-0.10491818
85	0xbec6b892	-0.3881269
86	0x3ea2a431	0.31765893
87	0xbe1c6769	-0.15273823
88	0xbe1ff63d	-0.15621276
89	0xbd275c0c	-0.040859267
90	0xbdb93877	-0.09043973
91	0xbdbff3ce	-0.09372674
92	0x3dc5a49a	0.09650536
93	0x3e2b2b70	0.16715789
94	0xbe4eddbe	-0.20201775
95	0xbe819615	-0.25309816
96	0x3e634a0a	0.22196212
97	0xbe2a7315	-0.16645463
98	0x3df634ea	0.12021811
99	0xbd6fce2b	-0.058546226
100	0xbf11e8a4	-0.56995606
101	0x3dea9d79	0.11455817
102	0x3d5cbe78	0.053892583
103	0xbd67337f	-0.056445595
104	0xbd4974a1	-0.04918349
105	0x3daf1f59	0.08550901
106	0xbcc195e4	-0.023631044
107	0x3da435e1	0.08018089
108	0x3dd02dbc	0.10164973
109	0x3d692824	0.056923047
110	0xbf051411	-0.51983744
111	0x3c141bb4	0.009039808
112	0xbdee0397	-0.116217785
113	0x3d48989b	0.04897366
114	0x3e0b061c	0.1357655
115	0x3ddbdd61	0.10735584
116	0x3e5d5dbd	0.2161779
117	0xbdb01251	-0.085972436
118	0xbd8c7a85	-0.06859306
119	0x3d407ffd	0.04699706
120	0x3d5929cf	0.053018387
121	0x3c164a3f	0.009172975
122	0xbe94168e	-0.28923458
123	0xbbdd3cfb	-0.006751654
124	0xbe0f1dba	-0.13976184
125	0xbc812ff6	-0.01576994
126	0xbeb2653d	-0.34842864
127	0xbc69ffaf	-0.014282151
128	0x3dddd95b	0.10832473
129	0xbdc6e7d2	-0.09712185
130	0x3dcfca74	0.10146037
131	0xbdb370d6	-0.08761756
132	0x3e04ada8	0.1295687
133	0xbc2d2c6a	-0.010569671
134	0xbe329754	-0.1744054
135	0xbd8b2d63	-0.06795766
136	0xbe15e3a3	-0.14637618
137	0xbded3f15	-0.115842976
138	0x3e9eef38	0.31041884
139	0xbcb8adc2	-0.022543792
140	0xbe1ce8e6	-0.15323219
141	0x3e9b1d7c	0.30295932
142	0xbde7dca8	-0.11321384
143	0x3bcb4d83	0.0062043085
144	0xbdce5c9c	-0.100762576
145	0xbe5c3f58	-0.21508539
146	0x3ccc0b15	0.024907628
147	0x3d956fa5	0.07296685
148	0x3dcd6006	0.10028081
149	0x3d16614e	0.03671389
150	0x3cfd28fa	0.030903328
151	0x3c318f8f	0.01083745
152	0x3d7e59c9	0.062097345
153	0xbbe4d8db	-0.006983859
154	0x3cb28034	0.021789648
155	0xbd0760aa	-0.03305117
156	0xbad60f7a	-0.0016331517
157	0xbcc69e16	-0.024245303
158	0x3c2bd560	0.010487884
159	0x3bdaa6c4	0.006672712
160	0xbf22ce1c	-0.6359575
161	0xbdb5708c	-0.08859357
162	0xbcb1bee0	-0.021697462
163	0xbd038339	-0.032107566
164	0xbd168e46	-0.036756776
165	0xbcbb1ecb	-0.022841832
166	0xbdcd6d9b	-0.10030671
167	0x3ba7435e	0.0051044663
168	0xbcdeafa4	-0.027183361
169	0x3dca6e38	0.09884304
170	0xbbec7265	-0.0072157853
171	0x3cb04dc1	0.021521451
172	0x3dadd7fc	0.084884614
173	0xbd3a1ea0	-0.045439363
174	0xbd0f1ca4	-0.034939423
175	0x3ba6b070	0.005086951
176	0x3dcb04c9	0.09913022
177	0xbc8bbc8a	-0.017057676
178	0xbb54b60c	-0.0032457141
179	0xbcedbda2	-0.029021088
180	0x3d12e44a	0.035862245
181	0xbc14e1e9	-0.009087064
182	0xbd4357fc	-0.04769133
183	0x3cf5f7ae	0.03002533
184	0xbd4766b8	-0.048681945
185	0xbd506d57	-0.050885525
186	0x3eef01f4	0.46681178
187	0x3d489867	0.048973467
188	0xbe0e3bb7	-0.13889967
189	0x3d1a80ba	0.03772042
190	0xbd683ad6	-0.056696735
191	0xbd7545fc	-0.059881195
192	0x3b30fd00	0.0027006269
193	0x3c881c07	0.016614927
194	0xbef59b52	-0.47970062
195	0xbccedcbc	-0.025251739
196	0xbc4174fd	-0.011807677
197	0xbc0cac9a	-0.008586073
198	0x3b9cec33	0.0047888993
199	0x3aa4e248	0.0012579644
200	0x3dc80d0a	0.09768112
201	0xbe6cb8c6	-0.2311736
202	0xbe16ed29	-0.14738907
203	0x3e849949	0.25898197
204	0x3e8180f3	0.25293693
205	0xbd07eaa3	-0.03318275
206	0xbda15526	-0.07877569
207	0xbe80a731	-0.25127557
208	0x3ea1dec5	0.31615272
209	0xbdc2a52b	-0.095041595
210	0xbd9ef186	-0.07760911
211	0xbcf76cde	-0.03020328
212	0x3d365a33	0.044519614
213	0x3e36f56c	0.17867059
214	0x3d461d04	0.048367515
215	0xbd924275	-0.07141582
216	0xbb8a402e	-0.0042190766
217	0x3e5cac22	0.21550038
218	0xbd9330b0	-0.07187021
219	0xbd52d9cb	-0.051477235
220	0xbdc4e48e	-0.09613906
221	0x3e2d13bd	0.16902061
222	0x3dd02bd6	0.10164611
223	0xbd9f52fc	-0.077795
224	0x3d554e33	0.05207653
225	0xbe4a5893	-0.19760351
226	0x3dda300e	0.10653697
227	0xbe13b4c2	-0.14424422
228	0xbe398a8c	-0.18119258
229	0x3dad6aca	0.08467634
230	0xbdf10df0	-0.117702365
231	0x3e68382c	0.22677678
232	0xbc2498ff	-0.010046243
233	0xbe345819	-0.17611732
234	0x3d9f7142	0.07785274
235	0xbd4ee4a0	-0.050511003
236	0x3e28eca5	0.16496523
237	0xbd9f0bcc	-0.07765922
238	0xbd347cca	-0.04406432
239	0x3cb0dc61	0.02158946
240	0xbcdbf322	-0.026849333
241	0xbe011438	-0.12605369
242	0x3e831d05	0.25608078
243	0xbe341ba4	-0.17588669
244	0x3cda3f99	0.026641654
245	0xbe02e959	-0.12784328
246	0xbe0acc17	-0.13554417
247	0xbe0b7ebb	-0.13622563
248	0xbd908470	-0.070565104
249	0xbe852e9a	-0.26012117
250	0x3d01a5b7	0.03165218
251	0xbde618c6	-0.11235194
252	0xbcb134a6	-0.02163155
253	0xbe315b99	-0.17320098
254	0x3c998f99	0.01874523
255	0xbbe91492	-0.007113048

_impl.layers.1.linear.weight_g f4 [50, 1]
0	0x3fd4512f	1.6587275
1	0x3fa5fff8	1.296874
2	0x3fe1d7ce	1.7643983
3	0x4060e11f	3.5137403
4	0x3fade796	1.35863
5	0x403e9dd9	2.9783843
6	0x3feacdd7	1.8344067
7	0x3fbd99a9	1.4812518
8	0x3fb00ed8	1.375453
9	0x3feb6801	1.8391114
10	0x3fc355ef	1.52606
11	0x40497a4b	3.1480892
12	0x3f92f9f0	1.1482525
13	0x3fcc0c63	1.594128
14	0x3f9f5193	1.244677
15	0x3fa15b4b	1.2605985
16	0x3fa55f2f	1.2919673
17	0x4018dcbd	2.3884728
18	0x3fb8f775	1.4450518
19	0x3fbad4f7	1.4596242
20	0x3fc95f4b	1.5732206
21	0x3fa0a310	1.2549763
22	0x3faf2e81	1.3686067
23	0x3fa6cf53	1.303202
24	0x3f9e4a4b	1.2366422
25	0x3fd90495	1.6954523
26	0x3fb480d1	1.4101812
27	0x3faa63bc	1.3311687
28	0x3fa33169	1.2749454
29	0x3f94f3c7	1.1636895
30	0x3fe24d45	1.7679831
31	0x400d1672	2.204495
32	0x3f9405c8	1.1564264
33	0x3fa32cdf	1.2748069
34	0x3f9e6372	1.2374098
35	0x3fe37293	1.776934
36	0x3f9bb6eb	1.2165197
37	0x3fb16197	1.3857907
38	0x3f96f37a	1.1793053
39	0x3fa921b9	1.3213416
40	0x3fd29ae0	1.6453514
41	0x3f8885cf	1.0665835
42	0x3f9d7034	1.2299867
43	0x3fb02ac9	1.3763057
44	0x3fb26f3a	1.3940194
45	0x3f925ee0	1.1435204
46	0x3f9f0995	1.2424799
47	0x3fe6be65	1.8026854
48	0x3fbef1dc	1.491756
49	0x3fc40c52	1.531626

_impl.layers.1.linear.bias f4 [50]
0	0xbef42b54	-0.47689307
1	0xbdc6faab	-0.0971578
2	0xbe039c5b	-0.12852614
3	0x3e718e1b	0.23589365
4	0x3ccf4299	0.02530031
5	0xbe04436a	-0.12916341
6	0xbe801877	-0.25018665
7	0xbe19c1ac	-0.15015286
8	0xbe221d5e	-0.15831515
9	0x3d862aad	0.065511085
10	0xbde0d776	-0.10978596
11	0x3e6305aa	0.2217013
12	0xbe87bfd6	-0.26513547
13	0x3e450088	0.19238484
14	0xbeb9c9b9	-0.36286715
15	0xbe11a777	-0.14224039
16	0x3e0d93c8	0.13825905
17	0xbd2d1a8e	-0.042261653
18	0xbe69d95b	-0.22836821
19	0xbdbc6df4	-0.092006594
20	0xbebb8bef	-0.36630198
21	0xbe184a4e	-0.14872095
22	0xbe235a08	-0.15952313
23	0xbda29aab	-0.07939657
24	0x3ed5f7c8	0.41790605
25	0xbebb8216	-0.36622685
26	0x3e9c1c42	0.3049031
27	0x3ddf61ba	0.10907312
28	0xbe4f8400	-0.20265198
29	0x3da3e921	0.0800345
30	0x3ee19e24	0.44065964
31	0x3d1096c9	0.03530005
32	0xbe36ee84	-0.17864424
33	0xbd9e3135	-0.07724229
34	0xbe91a7bc	-0.28448284
35	0x3eecc937	0.46247265
36	0xbd75aa50	-0.059976876
37	0x3ed8ca46	0.42341822
38	0x3e464a46	0.1936427
39	0xbdd09254	-0.1018416
40	0xbf2ebd75	-0.6825784
41	0xbe2a0862	-0.1660476
42	0xbe1645e8	-0.14675105
43	0xbda0c55a	-0.07850142
44	0xbd982c6b	-0.07430347
45	0xbe43d6cc	-0.19124907
46	0xbd416038	-0.047210902
47	0x3ed37b08	0.41304803
48	0x3e0c5c8d	0.1370718
49	0xbf48bb6a	-0.7841097

_impl.layers.2.linear.weight f4 [50, 50]
0	0xbd20960f	-0.039205607
1	0xbdc7980d	-0.09745798
2	0x3ea68da8	0.3252995
3	0x3e86dfbe	0.26342577
4	0xbdc3ebb7	-0.095664434
5	0x3e42de20	0.19030046
6	0x3bc08a27	0.005875844
7	0xbe1cb88b	-0.15304773
8	0x3de51531	0.111856826
9	0x3dd43766	0.10362129
10	0x3d87f9c5	0.06639437
11	0xbd280b00	-0.041026115
12	0x3e22897b	0.15872757
13	0x3d8d445d	0.06897805
14	0xbd50be0b	-0.05096249
15	0x3e3f0ee6	0.18658027
16	0xbe0cbf92	-0.13744953
17	0xbea05805	-0.31317154
18	0x3b477458	0.0030434337
19	0x3d04f8f7	0.032463994
20	0xbe02cce6	-0.12773475
21	0xbe074bbc	-0.13212484
22	0xbd81ef31	-0.0634445
23	0x3da98968	0.08278161
24	0xbe002f9c	-0.12518162
25	0xbd347aac	-0.0440623
26	0xbdcd0edc	-0.100126
27	0x3d874fbc	0.06607005
28	0xbbe84bd3	-0.007089117
29	0x3dbad74f	0.09123098
30	0x3dc8cec2	0.09805061
31	0x3d75e634	0.060033992
32	0xbbc6ccc6	-0.0060668914
33	0x3dadedbc	0.0849261
34	0x3dd1f35a	0.10251494
35	0x3ec7659f	0.38944718
36	0xbd52a197	-0.051423635
37	0xbd180f9c	-0.03712426
38	0xbd7fcdb5	-0.062452037
39	0x3dfa3d33	0.12218704
40	0x3e48b132	0.19598845
41	0x3e846649	0.25859287
42	0xbdb9dc2a	-0.09075196
43	0x3e45b606	0.19307718
44	0xbd5c89e7	-0.05384245
45	0x3e932907	0.2874224
46	0x3ce2fc71	0.027708264
47	0x3cd5f6ad	0.0261186
48	0xbe4fe95f	-0.20303868
49	0xbcc2542c	-0.023721777
50	0x3da638eb	0.08116325
51	0xbc706816	-0.0146732535
52	0xbd8e54aa	-0.06949742
53	0x3e6288aa	0.22122446
54	0xbe0c61e8	-0.13709223
55	0x3d858b77	0.065207414
56	0xbdaf54cf	-0.08561098
57	0x3d496b21	0.04917443
58	0x3d1a1afa	0.037623383
59	0xbde8da97	-0.11369818
60	0x3e15ffda	0.14648381
61	0xbe1bcd40	-0.15215015
62	0x3d787770	0.06066078
63	0xbe35dddb	-0.17760412
64	0xbe8f9362	-0.28042132
65	0xbe40111b	-0.18756525
66	0x3e25c088	0.16186726
67	0x3d1fa457	0.038975086
68	0xbdb6b555	-0.08921305
69	0x3dbdae28	0.09261733
70	0x3d3262ca	0.043551244
71	0xbd81ca53	-0.063374184
72	0xbd74cec6	-0.059767507
73	0xbd2908a7	-0.041268017
74	0x3e58d2da	0.21174183
75	0x3e50af91	0.20379473
76	0x3dacb0cf	0.08432161
77	0x3da7be3f	0.081905834
78	0xbd7e6ca3	-0.062115323
79	0x3e4572a0	0.19282007
80	0xbccc72d1	-0.024957092
81	0x3d40d952	0.047082253
82	0xbe3be71e	-0.18349883
83	0xbc8fc275	-0.017548779
84	0x3d5e45b8	0.054265708
85	0xbe938986	-0.2881586
86	0xbd162950	-0.036660492
87	0x3d858eee	0.06521402
88	0x3e568e51	0.20952727
89	0x3d61d824	0.05513777
90	0x3e02a5ca	0.12758556
91	0xbd375e99	-0.04476795
92	0x3d9280dd	0.07153485
93	0xbd0e3201	-0.034715656
94	0xbd8f4dd2	-0.06997265
95	0x3e0406d2	0.12893227
96	0xbd936789	-0.07197482
97	0xbe38dbc6	-0.18052587
98	0x3e29a71b	0.16567652
99	0x3c89f323	0.01683957
100	0x3d532c8a	0.051556148
101	0x3e232844	0.15933329
102	0xbe88bbc7	-0.26705763
103	0xbe58b338	-0.21162117
104	0xbe27d793	-0.16390829
105	0xbe12ce29	-0.14336456
106	0x3e548d16	0.20756945
107	0xbe6f637f	-0.23377798
108	0x3d817bab	0.06322416
109	0x3d2a22c1	0.04153705
110	0xbd0f5ece	-0.035002522
111	0xbc66c301	-0.0140845785
112	0xbe43ff21	-0.19140293
113	0x3e1db907	0.15402614
114	0xbe1f5714	-0.15560561
115	0xbe346841	-0.17617895
116	0x3d4ab12d	0.049485374
117	0xbdaa96a8	-0.08329517
118	0x3d8baa2f	0.06819569
119	0x3e0efbf7	0.13963304
120	0x3e41444f	0.18873714
121	0xbe0feaf5	-0.14054473
122	0x3ce1eb28	0.027577952
123	0xbe3f273d	-0.18667312
124	0x3dff8bea	0.12477858
125	0x3e4d4555	0.2004598
126	0x3e0c4a85	0.13700302
127	0xbd5c60c4	-0.05380322
128	0x3d497f7b	0.04919384
129	0x3dd61a90	0.10454285
130	0xbe171fb9	-0.14758195
131	0xbcc1d288	-0.02365996
132	0x3d1b3262	0.037889846
133	0x3dc79282	0.09744741
134	0x3e766562	0.24062112
135	0xbe031ace	-0.12803194
136	0xbe0acc66	-0.13554534
137	0x3db90f3e	0.0903611
138	0x3db56ac2	0.08858253
139	0xbe619f85	-0.22033508
140	0xbe25f5d2	-0.16207054
141	0x3bd7654e	0.0065733558
142	0xbd97f816	-0.074203655
143	0xbe5a525b	-0.21320479
144	0xbdcfe17f	-0.10150432
145	0xbe8509d7	-0.2598407
146	0x3e2f0d62	0.17094949
147	0x3d1207ef	0.035652097
148	0x3c972513	0.018450296
149	0x3d224513	0.039616656
150	0xbe741e5a	-0.23839703
151	0x3e2016a5	0.15633638
152	0xbe78c8ec	-0.24295396
153	0xbe80d074	-0.25159037
154	0xbcd6ff76	-0.02624486
155	0xbdc97e27	-0.09838515
156	0x3db6bfef	0.08923327
157	0xbd20f68b	-0.03929762
158	0x3dbb48fc	0.0914478
159	0x3d63ffe3	0.055663954
160	0x3e071a09	0.13193525
161	0xbe9f7bf5	-0.3114926
162	0x3d81c84e	0.06337033
163	0x3de30204	0.11084369
164	0x3cb8a55e	0.02253979
165	0xbd2164c4	-0.03940274
166	0x3e6697a8	0.2251879
167	0x3d9e27c2	0.07722427
168	0x3d1dcdc2	0.038526304
169	0xbd974503	-0.0738621
170	0xbc4d058a	-0.012513528
171	0x3db73637	0.089458875
172	0xbdd48fe9	-0.10379011
173	0xbd7ddf86	-0.061980747
174	0xbe8346ca	-0.25639945
175	0xbe5497ce	-0.20761034
176	0xbe21a1ad	-0.1578433
177	0xba188872	-0.0005818672
178	0xbe2eb41c	-0.17060894
179	0x3babfb7b	0.0052484847
180	0x3e5d7b69	0.21629108
181	0x3dcf43c6	0.10120349
182	0x3e0f7640	0.14009953
183	0xbe08303c	-0.1329965
184	0x3c173a4e	0.0092302095
185	0x3e9d26e1	0.30693725
186	0x3d135500	0.035969734
187	0x3d32a70e	0.043616347
188	0xbccbb052	-0.02486435
189	0xbe1fab3d	-0.15592666
190	0x3e5079cc	0.20358962
191	0x3e19b6e8	0.1501118
192	0xbe4b1b58	-0.1983465
193	0x3cf6f57e	0.030146357
194	0xbc9e635c	-0.019334488
195	0x3d8ba9ce	0.06819497
196	0xbe092efb	-0.13396828
197	0x3db85f6d	0.09002576
198	0x3d2abe61	0.041685466
199	0x3d042bbd	0.032268275
200	0xbd918c00	-0.07106781
201	0xbb9eb0cc	-0.004842853
202	0x3cd326c3	0.025775319
203	0xbdbe3284	-0.09286979
204	0xbcf75c3c	-0.030195348
205	0xbea6083d	-0.3242816
206	0xbd261cbe	-0.040554754
207	0xbe3849f2	-0.17996958
208	0xbe72177c	-0.23641771
209	0xbe3c24d5	-0.18373425
210	0xbd9eb018	-0.07748431
211	0x3ebe576a	0.37176067
212	0xbe247d24	-0.16063362
213	0x3e2df460	0.16987753
214	0xbd48513f	-0.048905607
215	0xbe749ff3	-0.23889141
216	0x3e3b96b8	0.18319213
217	0xbe69264d	-0.22768517
218	0xbd2ba75d	-0.041907657
219	0x3c5e7b42	0.013579192
220	0xbb2baaad	-0.002619426
221	0x3a748b64	0.0009328632
222	0xbdcebd53	-0.100947045
223	0xbde716fc	-0.11283681
224	0xbe4fc5f8	-0.20290363
225	0x3e445055	0.19171269
226	0xbe26ab23	-0.16276221
227	0x3c8151e0	0.015786111
228	0x3e1adb5f	0.15122746
229	0x3d713dca	0.058896817
230	0xbdb9eabb	-0.090779744
231	0xbd6332bb	-0.055468302
232	0x3e18269b	0.14858477
233	0xbbe710fc	-0.0070515852
234	0xbdfd5ddf	-0.1237142
235	0xbe1eb4ca	-0.15498653
236	0x3d95ee92	0.07320894
237	0xbde49052	-0.111603394
238	0x3c2ebb2e	0.010664744
239	0x3cff7234	0.031182386
240	0xbe91c9cc	-0.2847427
241	0xbd715e87	-0.05892804
242	0x3d4fae56	0.05070337
243	0x3d7114f9	0.05885789
244	0x3dad9ebe	0.08477543
245	0xbda659f6	-0.081226274
246	0x3c8d89aa	0.017277557
247	0xbe4111cf	-0.1885445
248	0xbdf86b3b	-0.121298276
249	0xbdcb92e4	-0.099401265
250	0xbdefe1d1	-0.11712993
251	0x3d477da8	0.04870382
252	0x3d986f9f	0.07443165
253	0xbc3522d6	-0.011055669
254	0x3e2561cd	0.1615059
255	0xbe33819c	-0.17529911

_impl.layers.2.linear.weight_g f4 [50, 1]
0	0x3faf4cd7	1.3695325
1	0x3fba91e3	1.4575771
2	0x3f81040e	1.0079362
3	0x3f882eff	1.0639342
4	0x3fc0fefb	1.5077814
5	0x3ff1e500	1.889801
6	0x40047076	2.069364
7	0x3fc95d1e	1.5731542
8	0x3faec915	1.3655115
9	0x403f1fc7	2.9863145
10	0x3f9fbe3a	1.2479928
11	0x3fafbf2c	1.3730216
12	0x3fbfa893	1.497332
13	0x3fca5dde	1.5809896
14	0x3f8c2c5f	1.0951041
15	0x407af034	3.9209108
16	0x3fbc442b	1.4708303
17	0x3f908a2c	1.1292167
18	0x3f9cf6c5	1.2262808
19	0x403727e1	2.861809
20	0x3f824dd9	1.0180007
21	0x3f828e80	1.0199738
22	0x3fd88285	1.6914831
23	0x404a4524	3.16047
24	0x3f80914f	1.0044345
25	0x3ff936ad	1.9469811
26	0x3fb8becc	1.4433227
27	0x3f8214f5	1.0162646
28	0x3fdac817	1.7092313
29	0x3fefa11a	1.8721039
30	0x3fcedfa1	1.6161996
31	0x3f8d4abd	1.1038433
32	0x4012de94	2.294835
33	0x3fb93aa9	1.4471027
34	0x4039c13c	2.902419
35	0x40090345	2.1408246
36	0x3fd2c581	1.6466523
37	0x3fc0cdf9	1.5062858
38	0x400c0601	2.1878664
39	0x3fad5976	1.3542926
40	0x3f71ce6c	0.944556
41	0x40011fa6	2.0175567
42	0x3fab1b4b	1.3367704
43	0x3fbc9662	1.4733393
44	0x3f815603	1.0104374
45	0x3fe50c2b	1.7894338
46	0x3faeaf86	1.3647316
47	0x3fd28a5a	1.6448472
48	0x3f739186	0.95143926
49	0x3fa33e81	1.275345

_impl.layers.2.linear.bias f4 [50]
0	0xbd85e935	-0.06538621
1	0xbd9db798	-0.07701033
2	0x3d5c91e8	0.053850085
3	0xbe26609d	-0.16247793
4	0x3b955585	0.004557314
5	0x3e51aa4b	0.20475118
6	0x3e8f4939	0.27985552
7	0xbeb27da9	-0.34861496
8	0xbda1808f	-0.07885849
9	0x3f786ba7	0.97039264
10	0xbdc7cd06	-0.09755902
11	0xbe5b1018	-0.21392858
12	0x3e8a4bdb	0.27010998
13	0xbc4d0fd8	-0.0125159845
14	0x3dc6bc60	0.097038984
15	0xbed2a654	-0.41142523
16	0x3d3e8695	0.046515066
17	0xbd0ea740	-0.03482747
18	0xbdcba015	-0.099426426
19	0x3e6391a0	0.2222352
20	0x3ddf8ca4	0.10915497
21	0xbe090c49	-0.13383593
22	0x3e2829b3	0.16422157
23	0x3ea29aa9	0.3175862
24	0x3d4d9b54	0.05019696
25	0x3ef97738	0.4872377
26	0xbd74c389	-0.05975679
27	0xbe22f604	-0.1591416
28	0xbe88a2d9	-0.26686743
29	0x3c94d6b9	0.018168794
30	0x3ddb6218	0.10712069
31	0xbd3f51f9	-0.046709035
32	0xbea29187	-0.31751654
33	0x3e0b1cbd	0.13585182
34	0x3d33462a	0.043768086
35	0x3f1e65bf	0.61874
36	0xbe83579f	-0.25652787
37	0xbe157329	-0.14594711
38	0xbed153ae	-0.40884155
39	0xbd9dbe77	-0.07702344
40	0x3d25ccb6	0.04047843
41	0x3e6ec06e	0.23315594
42	0xbcf9a6a2	-0.030474965
43	0xbe23b3fc	-0.15986627
44	0xbe0e3568	-0.1388756
45	0x3e444ad4	0.1916917
46	0xbc9895ba	-0.018626083
47	0xbd35b012	-0.044357367
48	0x3e00e3b3	0.1258686
49	0x3d80aef9	0.062833734

_impl.final_layer.linear.weight f4 [1, 50]
0	0xbeda0884	-0.42584622
1	0x3f0ec6e9	0.5577226
2	0x3e2f8088	0.17138875
3	0x3c056da6	0.008143818
4	0x3e28ddf2	0.16490915
5	0x3ec84fa4	0.3912326
6	0xbf3dcf48	-0.7414441
7	0xbf393966	-0.7235321
8	0xbf0c3903	-0.5477449
9	0x3e5bc41c	0.21461529
10	0xbe054388	-0.13014042
11	0xbe3b6300	-0.18299484
12	0x3e29a310	0.1656611
13	0x3ebccb32	0.36873776
14	0x3ea69ea0	0.32542896
15	0xbe0c3c8e	-0.13694975
16	0xbeddd93e	-0.43329805
17	0x3e953ff1	0.29150346
18	0xbddf9f47	-0.109190516
19	0xbf621057	-0.8830618
20	0x3e46dfec	0.19421357
21	0xbe54de97	-0.20788036
22	0x3eeb60e3	0.45972356
23	0x3eae697d	0.34064856
24	0x3a4b9fc7	0.0007767644
25	0x3f263459	0.64923626
26	0x3eb1edfb	0.34751877
27	0xbe0dd99f	-0.13852547
28	0xbee537c7	-0.44769117
29	0xbf12b2fe	-0.5730437
30	0xbea52237	-0.32252666
31	0xbe972595	-0.2952086
32	0xbe9a599f	-0.301465
33	0x3e5bc1da	0.21460667
34	0x3f19f390	0.6013727
35	0x3f5b9860	0.8577938
36	0x3f1a12f7	0.6018519
37	0xbe0e1179	-0.13873853
38	0xbe81d5c2	-0.25358397
39	0x3ecb3396	0.39687794
40	0xbe4a9453	-0.19783144
41	0x3f236534	0.638263
42	0xbeeb84a3	-0.4599963
43	0xbebcf9cd	-0.36909333
44	0xbe84c9ef	-0.25935313
45	0x3e905faa	0.28197986
46	0xbed69b36	-0.41915292
47	0xbe8ebdc7	-0.27879164
48	0xbe50a2df	-0.2037463
49	0x3eacbadb	0.3373631
