PINNs/model_saved/baseline_A/ckpt_step_010000/u_network.0.pth (torch, 15173 bytes, 7 tensors)

_impl.layers.0.linear.weight f4 [50, 1]
0	0x3e9b94f1	0.3038707
1	0x3e958283	0.29201135
2	0xbde4115a	-0.11136122
3	0x3e9e7001	0.30944827
4	0xbd26af15	-0.040694315
5	0x3d989a24	0.07451275
6	0xbe374625	-0.17897852
7	0x3e3821da	0.17981663
8	0x3e8a3567	0.26993868
9	0xbe849af9	-0.25899485
10	0x3e9a4aef	0.30135295
11	0x3df67a7d	0.120350815
12	0x3e7eb8c6	0.24875173
13	0x3d35d847	0.04439571
14	0x3e2e6d0f	0.1703379
15	0xbdb677df	-0.08909582
16	0x3e8405f9	0.25785807
17	0x3d90904e	0.07058774
18	0xbe16bf7b	-0.14721482
19	0x3d4ee8b2	0.050514884
20	0xbe53cdd5	-0.20683987
21	0xbd55d0d4	-0.052201107
22	0xbe241b59	-0.16026057
23	0x3e5f47a7	0.21804677
24	0xbe95a788	-0.2922938
25	0xbe28fc42	-0.16502479
26	0xbdad2229	-0.08453781
27	0xbe60eb65	-0.21964796
28	0xbd2ae6fc	-0.04172419
29	0xbeb6ff87	-0.35741827
30	0x3ea3158e	0.31852382
31	0xbea7707d	-0.3270301
32	0x3e8bdbf0	0.27316236
33	0x3d28d7b8	0.04122135
34	0xbe13f990	-0.1445067
35	0x3e4b90b4	0.19879419
36	0x3d8ae84a	0.06782587
37	0x3e8d0fed	0.27551213
38	0x3d06f68d	0.032949973
39	0xbde2cca3	-0.110741876
40	0x3d937698	0.07200354
41	0xbe03595d	-0.12827058
42	0x3e411d97	0.18858944
43	0x3e97837e	0.29592508
44	0x3e5340e4	0.20630223
45	0xbe342cb4	-0.17595178
46	0x3e2f9fe4	0.17150837
47	0x3dc0b303	0.09409144
48	0x3e469226	0.19391689
49	0xbe75d29f	-0.24006127

_impl.layers.0.linear.weight_g f4 [50, 1]
0	0x3fe7d332	1.8111327
1	0x3ffe1534	1.9850221
2	0x3ff057f7	1.8776845
3	0x3fee4e60	1.8617668
4	0x3fdbf9e0	1.7185631
5	0x4006aee3	2.1044242
6	0x4004f4bb	2.0774372
7	0x401a946f	2.4153097
8	0x3ffdc5c0	1.9825974
9	0x3ff35629	1.9010669
10	0x3ff50703	1.9142765
11	0x3fe5db82	1.7957613
12	0x400949eb	2.1451366
13	0x3fd6784d	1.6755463
14	0x40149416	2.3215384
15	0x3ffed0b0	1.9907436
16	0x400819cd	2.1265748
17	0x3ffeaed4	1.9897103
18	0x4017be9d	2.371009
19	0x402ef5af	2.7337453
20	0x400ba9a2	2.1822286
21	0x3fd80f55	1.6879679
22	0x3fff9619	1.9967681
23	0x400073da	2.007071
24	0x3fda4265	1.7051512
25	0x4061847f	3.523712
26	0x3ff64240	1.9238968
27	0x4035488b	2.8325527
28	0x400aee9f	2.1708143
29	0x3ff55c8a	1.9168866
30	0x405aa342	3.4162145
31	0x3ffeb665	1.9899412
32	0x3ff8d862	1.9441035
33	0x40378f71	2.86813
34	0x3ffc2427	1.9698533
35	0x401631f5	2.3467991
36	0x3fd06abb	1.6282572
37	0x3febd772	1.8425124
38	0x3fe8972b	1.8171133
39	0x3fdffc36	1.7498844
40	0x40068767	2.1020143
41	0x3ffa9c5f	1.9578971
42	0x406a2bef	3.6589315
43	0x3ff93143	1.9468158
44	0x3fd44fc1	1.6586839
45	0x3fd9350a	1.6969311
46	0x401e930d	2.4777253
47	0x3ffb6c39	1.9642402
48	0x3ffa701d	1.9565464
49	0x40267349	2.6007864

_impl.layers.0.linear.bias f4 [50]
0	0x3f7903af	0.97271246
1	0x3f83268c	1.0246139
2	0x3f7d1764	0.98863816
3	0x3f856ef1	1.0424482
4	0x3f828e8e	1.0199754
5	0xbf52d6d7	-0.8235907
6	0xbfcf4a4d	-1.619455
7	0xbf3a3655	-0.72739154
8	0x3faf4b0c	1.3694777
9	0x3fad9a91	1.3562795
10	0xbfbc65b1	-1.4718534
11	0xbf64dc50	-0.8939867
12	0xbf9cde30	-1.2255306
13	0x3f956fd0	1.1674747
14	0xbf34bb0d	-0.70597917
15	0xbf93cb00	-1.1546326
16	0x3f6e6fce	0.9313935
17	0xbf92b12f	-1.1460322
18	0x3f4a4abb	0.7902028
19	0x3f2bae60	0.6706295
20	0xbff8c4ad	-1.9435021
21	0x3f86236b	1.0479559
22	0xbfc8c4c2	-1.5685046
23	0xbfcbe6ac	-1.592977
24	0x3f41f60a	0.7576605
25	0xbf1c0418	-0.60943747
26	0xbf9e83b4	-1.2383943
27	0xbf229287	-0.63504833
28	0xc006ee77	-2.1083047
29	0x3f9c170e	1.2194536
30	0x3ef7a071	0.48364595
31	0xbfc4e7e0	-1.5383263
32	0xbfcde1bb	-1.6084512
33	0x3f53185b	0.8245904
34	0x3f9034d6	1.1266124
35	0xbf4768f8	-0.77894545
36	0xbf5b5401	-0.85675055
37	0x3f84cdf8	1.0375357
38	0xbf87511f	-1.0571631
39	0x3f89a0a3	1.0752147
40	0xbf22a565	-0.6353362
41	0xbfb273f4	-1.3941636
42	0xbf0b0a28	-0.5431237
43	0x3f905eaf	1.1278895
44	0xbf8cc878	-1.0998678
45	0x3f8c5dce	1.0966127
46	0x3f562eff	0.8366546
47	0x3faf33ea	1.3687718
48	0x3f9e115d	1.2349049
49	0xbf5804fb	-0.843826

_impl.layers.1.linear.weight f4 [50, 50]
0	0x3d73ef73	0.05955453
1	0x3d67bc9f	0.056576367
2	0x3e56b61b	0.20967905
3	0x3d6a26cd	0.05716591
4	0x3e5994b5	0.21248133
5	0xbe4bb8af	-0.1989467
6	0xbd909bce	-0.070609674
7	0xbe44bda8	-0.19212973
8	0x3d885ebe	0.06658696
9	0x3e780e26	0.24224147
10	0xbe813fe1	-0.25244048
11	0xbe4f3b89	-0.20237555
12	0xbe6a43b5	-0.2287739
13	0x3d89d6f8	0.06730455
14	0xbe3fa927	-0.1871687
15	0xbd792a82	-0.060831554
16	0x3d60910b	0.054825824
17	0xbe642dbd	-0.22283073
18	0x3e495f6f	0.19665311
19	0x3d79fac4	0.061030164
20	0xbd99111d	-0.07473967
21	0x3e5d2527	0.21596204
22	0xbd8aebbb	-0.06783243
23	0xbe832b32	-0.25618893
24	0x3e3f5bf8	0.18687427
25	0xbd9448d4	-0.07240453
26	0xbd83ec2a	-0.06441529
27	0xbd85e412	-0.065376416
28	0xbdb0607d	-0.08612154
29	0x3e69489b	0.22781603
30	0x3d85d477	0.06534665
31	0xbd8cefd4	-0.06881681
32	0xbe8dbf03	-0.27684793
33	0x3d8e4b37	0.0694794
34	0x3e60fd69	0.21971668
35	0xbe49e267	-0.19715272
36	0xbe4b3db9	-0.19847764
37	0x3d80f124	0.06295994
38	0xbe5b5cc6	-0.21422109
39	0x3e5ca4dd	0.21547265
40	0xbe3380f4	-0.1752966
41	0xbd870840	-0.065933704
42	0xbd704ebd	-0.05866884
43	0x3d7a52eb	0.061114233
44	0xbe693315	-0.22773392
45	0x3e68fc89	0.22752585
46	0x3d885743	0.06657269
47	0x3d845620	0.064617395
48	0x3d7f062b	0.06226174
49	0xbd8e6d95	-0.06954495
50	0x3e9671b0	0.29383612
51	0x3ea0f956	0.31440228
52	0xbcd51c54	-0.026014484
53	0x3e937def	0.28807017
54	0xbce98e71	-0.028510304
55	0x3ce79503	0.028269297
56	0xbe874abb	-0.26424202
57	0x3ce68d48	0.02814354
58	0x3e8e80aa	0.27832538
59	0xbc73ce1e	-0.014880685
60	0x3c54c8e6	0.012987351
61	0x3d022443	0.031772863
62	0x3c4f0556	0.0126355495
63	0x3e16b959	0.14719142
64	0x3d00b2c4	0.031420484
65	0xbe9b9dcf	-0.30393836
66	0x3eb2d6bf	0.34929463
67	0x3c9182c5	0.017762551
68	0xbccdb42d	-0.025110329
69	0x3e9d039b	0.30666813
70	0xbe64795b	-0.22311918
71	0xbce5f1ea	-0.028069455
72	0xbe821bfd	-0.25411978
73	0x3c16b625	0.0091987
74	0xbd292e6f	-0.04130405
75	0xbe63b1c4	-0.22235781
76	0xbe8da91a	-0.27668077
77	0xbe967c5d	-0.29391757
78	0xbe16c616	-0.14724001
79	0xbc8f5104	-0.017494686
80	0x3e46416e	0.19360897
81	0xbe839264	-0.25697625
82	0x3c1ff4eb	0.009762983
83	0x3eb3fa4a	0.35151893
84	0xbc9b1733	-0.01893196
85	0x3cd51055	0.026008764
86	0x3d1840f1	0.037171308
87	0x3e94f74a	0.29094917
88	0x3ccc421a	0.024933863
89	0xbcd6cb23	-0.02621991
90	0x3d2a746f	0.041614946
91	0xbe899058	-0.26867938
92	0x3cdf1d1a	0.027235556
93	0x3e973759	0.29534414
94	0x3cd77574	0.026301123
95	0xbcce57ab	-0.025188288
96	0x3eb8d014	0.3609625
97	0x3e8cdd3e	0.27512544
98	0x3e92a4d2	0.28641373
99	0xbebb0f8d	-0.36535302
100	0x3da1224b	0.07867869
101	0x3d9fbbb7	0.07799476
102	0xbe2f7d72	-0.17137697
103	0x3d9bf81e	0.07615684
104	0xbe154931	-0.14578702
105	0x3e64f6d6	0.22359785
106	0xbd68f8a7	-0.05687776
107	0x3e916109	0.28394344
108	0x3d826394	0.06366649
109	0xbdf4cee8	-0.11953527
110	0x3dd2d4fb	0.10294529
111	0x3e3176ad	0.17330427
112	0x3e29f068	0.16595614
113	0xbc111039	-0.008853965
114	0x3e8bcf52	0.2730661
115	0xbd93097a	-0.07179542
116	0x3daf1e2f	0.08550679
117	0x3e250935	0.16116793
118	0xbe88b314	-0.26699126
119	0x3ddafe55	0.10693041
120	0xbd4ad104	-0.04951574
121	0xbe0c9e77	-0.13732325
122	0xbd6d97ae	-0.05800598
123	0x3dc554ce	0.09635316
124	0xbe37a80f	-0.17935203
125	0xbdeee54e	-0.1166483
126	0xbd89aaed	-0.06722055
127	0xbde03fa4	-0.109496385
128	0xbc9260db	-0.01786845
129	0xbe111f16	-0.14172015
130	0x3e0c619d	0.13709112
131	0xbd71663a	-0.05893538
132	0x3da16bb3	0.0788187
133	0x3dba3ac9	0.09093244
134	0xbe25e25e	-0.16199633
135	0x3e877739	0.26458147
136	0x3e1f9a1e	0.15586135
137	0x3d988b3c	0.07448432
138	0x3e1c8d73	0.15288334
139	0xbe11c4ce	-0.14235231
140	0x3e8045ab	0.25053152
141	0xbd80c11e	-0.06286834
142	0x3ec10640	0.3770008
143	0x3d941cd8	0.07232064
144	0x3dfff8b0	0.12498605
145	0xbe05c47d	-0.13063236
146	0x3db8cb43	0.09023144
147	0x3d82c1f3	0.06384649
148	0x3d8be0f3	0.06830015
149	0xbdb60c06	-0.08889012
150	0xbe51cb67	-0.20487748
151	0xbe5c88bf	-0.2153654
152	0x3d9f7eae	0.07787834
153	0xbe4706f0	-0.1943624
154	0x3d9cfe83	0.07665732
155	0xbdb67285	-0.089085616
156	0x3e0a5baf	0.13511537
157	0xbdc87a81	-0.09788991
158	0xbe24df11	-0.16100718
159	0x3d6507ad	0.055915523
160	0xbd51bdbe	-0.051206343
161	0xbdaf29ce	-0.085528955
162	0xbd6e0019	-0.058105562
163	0xbd8f7423	-0.07004573
164	0xbdd06dc4	-0.10177186
165	0x3e4813e0	0.19538832
166	0xbe876e8d	-0.2645153
167	0xbd85d5ee	-0.065349445
168	0x3db8e005	0.09027103
169	0xbedd9434	-0.43277133
170	0x3dbf037b	0.09326836
171	0x3d98c265	0.07458953
172	0x3e083c14	0.13304168
173	0xbd3a27e7	-0.04544821
174	0x3dc922bc	0.09821078
175	0x3f034d25	0.5128959
176	0x3e2d5916	0.16928515
177	0x3ee58ddc	0.44834793
178	0x3d37c0e6	0.044861697
179	0x3d7f9fea	0.062408365
180	0xbeede173	-0.46461067
181	0x3e0c2cba	0.13688937
182	0xbd33593a	-0.043786265
183	0xbee3d8a9	-0.44501236
184	0x3d896539	0.0670876
185	0xbdbb799d	-0.09154055
186	0xbdb5b1b6	-0.08871786
187	0xbe47cbd3	-0.19511347
188	0xbd967540	-0.073465824
189	0x3d9610cb	0.07327422
190	0xbde7726a	-0.113011196
191	0x3e1d4e29	0.15361847
192	0xbe135fd5	-0.14392026
193	0xbe4403df	-0.19142102
194	0xbd903a10	-0.070423245
195	0x3d9004b7	0.07032149
196	0xbeb9bb8f	-0.36275908
197	0xbe2345b2	-0.15944555
198	0xbe351001	-0.17681886
199	0x3ec600ac	0.38672388
200	0xbda08bbc	-0.07839152
201	0xbda3281d	-0.079666354
202	0xbe216a99	-0.1576332
203	0xbda19511	-0.0788976
204	0xbe42ea5f	-0.19034718
205	0x3dcc846b	0.09986194
206	0x3dad5f10	0.08465397
207	0x3d621680	0.05519724
208	0xbd9e94e1	-0.0774324
209	0xbe7d3450	-0.24726987
210	0x3e94b470	0.29043913
211	0x3e1a0f6b	0.15044944
212	0x3e29edc8	0.16594613
213	0xbe362bc8	-0.17790139
214	0x3d84df1f	0.064878695
215	0x3da6fac4	0.081532985
216	0xbd9ac8e4	-0.07557848
217	0x3e30dd4f	0.17271923
218	0xbd8fd686	-0.07023339
219	0xbda7690d	-0.08174334
220	0x3daedbdf	0.08538031
221	0xbe50bbb7	-0.20384108
222	0x3dad1478	0.0845117
223	0x3e9fb652	0.31193787
224	0xbe0a8cfd	-0.13530345
225	0x3da16791	0.07881082
226	0x3d98fdad	0.0747026
227	0x3da43003	0.0801697
228	0x3e8e2983	0.27766046
229	0xbe52424f	-0.20533107
230	0xbda5f8a0	-0.08104062
231	0x3d9f73a5	0.07785729
232	0x3eb4b290	0.35292482
233	0xbda7faa7	-0.08202105
234	0xbe30bf49	-0.1726047
235	0x3d917553	0.07102456
236	0x3e297bb2	0.16551092
237	0xbd952097	-0.07281607
238	0x3e3cc287	0.18433581
239	0xbe4a0c07	-0.1973115
240	0x3d957901	0.0729847
241	0x3da0bd83	0.078486465
242	0xbd624a1d	-0.05524646
243	0xbda6f158	-0.081515014
244	0x3e6579a5	0.22409685
245	0xbe5e2bc8	-0.21696389
246	0xbda78851	-0.08180297
247	0xbda5964c	-0.080853075
248	0xbda6cee7	-0.08144932
249	0x3d9f52fa	0.077794984
250	0x3e07acb9	0.13249482
251	0x3e139ab7	0.14414488
252	0xbe17e7ff	-0.14834593
253	0x3e08e0d4	0.13367015
254	0xbe10bddc	-0.14134926
255	0x3e26a475	0.16273673

_impl.layers.1.linear.weight_g f4 [50, 1]
0	0x408115c1	4.0339055
1	0x40b2cc2d	5.587424
2	0x40a31449	5.096226
3	0x4093c0b1	4.617272
4	0x40ab80a9	5.3594556
5	0x408b61c0	4.3556824
6	0x40ce5ea6	6.449054
7	0x409bb895	4.866282
8	0x4091044d	4.531775
9	0x40a3c41e	5.11769
10	0x409801b6	4.750209
11	0x409d772d	4.920798
12	0x402e1862	2.7202382
13	0x409297f4	4.581049
14	0x40990aa7	4.7825503
15	0x401274f2	2.2883878
16	0x40904891	4.508858
17	0x408dca90	4.430977
18	0x40816c4e	4.044471
19	0x40c628b7	6.19247
20	0x4039b5c5	2.9017193
21	0x4023b726	2.5580535
22	0x405d80fe	3.460998
23	0x408640c9	4.1954083
24	0x4099645b	4.7935004
25	0x40198806	2.3989272
26	0x40a56a78	5.1692467
27	0x40a51ee9	5.160023
28	0x3ffd8d24	1.9808698
29	0x40703031	3.7529414
30	0x40749206	3.8214126
31	0x405c573c	3.4428244
32	0x4080c2a0	4.023758
33	0x40980a97	4.7512927
34	0x40383ad7	2.8785913
35	0x4015fa94	2.343419
36	0x408bc97a	4.3683443
37	0x40a15a58	5.0422783
38	0x40910c5e	4.5327597
39	0x40c1e506	6.059207
40	0x409fa549	4.9889264
41	0x40a1bd65	5.0543694
42	0x40780cb6	3.8757758
43	0x40942ca9	4.6304517
44	0x40965297	4.697582
45	0x405c0dea	3.4383492
46	0x405bb4b3	3.432904
47	0x40704b00	3.7545776
48	0x40aa3654	5.319132
49	0x40528c16	3.2898002

_impl.layers.1.linear.bias f4 [50]
0	0x3f41f3ea	0.7576281
1	0x3f7e8887	0.99427074
2	0xbe26fe23	-0.16307883
3	0xbe48b4eb	-0.19600265
4	0xbf18dff9	-0.59716755
5	0xbe2d229e	-0.16907737
6	0x3e620d1e	0.22075316
7	0x3fab9a96	1.3406551
8	0x3f3d55bb	0.7395894
9	0x3f095bc6	0.5365566
10	0xbe659f3e	-0.22424027
11	0x3e554ee7	0.2083088
12	0x3ed2d3f4	0.41177332
13	0x3e54342a	0.20723024
14	0xbf415a4c	-0.7552841
15	0x3e0d1bf7	0.13780199
16	0xbf91616e	-1.1357858
17	0x3f0e9ff0	0.55712795
18	0x3e60159e	0.21883246
19	0x3eaf5a83	0.34248742
20	0x3f726df6	0.9469904
21	0xbdd13679	-0.10215468
22	0xbee79d0b	-0.45237002
23	0x3da195a6	0.07889871
24	0xbecfcbd7	-0.40585205
25	0xbed56c3b	-0.41684136
26	0x3f1ff579	0.62483937
27	0xbf41b8af	-0.7567243
28	0x3e4a089c	0.19729847
29	0xbf3521eb	-0.7075488
30	0xbf07db3e	-0.5306891
31	0x3e9d1299	0.3067825
32	0x3f69dbf8	0.9135127
33	0x3d964828	0.073379815
34	0x3efbb58d	0.4916195
35	0x3ed29d39	0.41135576
36	0x3f104194	0.56350064
37	0x3e4557f7	0.19271837
38	0x3dacf005	0.084442176
39	0x3e7acdd3	0.24492578
40	0xbf25399d	-0.64541036
41	0x3db63594	0.08896938
42	0xbf1e7754	-0.6190083
43	0xbecf8207	-0.4052889
44	0xbf38a4b8	-0.7212634
45	0xbe0de77d	-0.13857837
46	0xbf55f1e8	-0.83572245
47	0xbde79e56	-0.11309497
48	0xbf36b92b	-0.71376294
49	0xbf015280	-0.5051651

_impl.final_layer.linear.weight f4 [1, 50]
0	0xbfa66592	-1.2999747
1	0x3faa8fe5	1.3325163
2	0x3f333a51	0.7001086
3	0xbe787968	-0.24265063
4	0x3f8f6791	1.1203481
5	0x3f2eedba	0.6833149
6	0x3f130186	0.574242
7	0x3fc0358c	1.5016341
8	0xbf00cc0b	-0.50311345
9	0x3fb3f2da	1.4058487
10	0x3f7623d8	0.96148443
11	0x3f3dd93a	0.74159586
12	0xbf312545	-0.69197494
13	0xbf0fe6c6	-0.5621151
14	0x3f00651d	0.50154287
15	0xbfa572ce	-1.2925661
16	0x3fe1bc72	1.7635634
17	0x3f177b05	0.5917209
18	0xbf211929	-0.62929016
19	0x3f687725	0.908068
20	0xc005e0a3	-2.0918357
21	0x3e06dc9e	0.13170096
22	0x3eedeaea	0.46468288
23	0x3f590bff	0.8478393
24	0x3f5a28c0	0.8521843
25	0xbed3b97a	-0.41352445
26	0x3f2df522	0.6795217
27	0x3f3755cb	0.71615285
28	0x3fba929d	1.4575993
29	0x3f8a7fc5	1.0820242
30	0xbe6f14dd	-0.23347802
31	0xbf857d2a	-1.0428822
32	0x3fedfa8e	1.8592088
33	0x3ef4fbcb	0.47848353
34	0xbece04f4	-0.40238154
35	0x3edd5202	0.4322663
36	0x3f10ff88	0.5663991
37	0xbf4c1768	-0.79723215
38	0xbefbef8a	-0.4920619
39	0xbf6d9737	-0.9280886
40	0xbf0b2535	-0.5435365
41	0x3ee232b9	0.44179323
42	0x3f1ed890	0.620492
43	0xbf4c9dc0	-0.7992821
44	0x3f537b8b	0.82610387
45	0xbecb8209	-0.39747646
46	0xbff5a285	-1.9190222
47	0x3ea0eb69	0.31429604
48	0xbf2b633f	-0.6694831
49	0xbf00194f	-0.5003862
