PINNs/model_saved/baseline_A/ckpt_step_001000/u_network.0.pth (torch, 15173 bytes, 7 tensors)

_impl.layers.0.linear.weight f4 [50, 1]
0.27367255 0.286043 -0.11087009 0.30762774 -0.06852601 0.08736831 -0.14787291 0.20632918
0.28900218 -0.24918519 0.2975343 0.082333185 0.2625144 0.020348774 0.16757616 -0.0560141
0.267012 0.055895213 -0.16021308 0.06945139 -0.17566817 -0.041422766 -0.12932199 0.21879323
-0.27855918 -0.14915149 -0.08749591 -0.21274221 -0.022046082 -0.343858 0.30085173 -0.29446557
0.2759613 0.06306791 -0.11460468 0.21270537 0.0384079 0.2782726 0.02107105 -0.09080478
0.090344116 -0.10171882 0.12310147 0.3032355 0.17774537 -0.16144423 0.19153364 0.07587718
0.18806861 -0.21487865
00000000: cf1e 8c3e 3a74 923e dc0f e3bd 6281 9d3e
00000010: 5d57 8cbd 28ee b23d ff6b 17be f547 533e
00000020: 18f8 933e 672a 7fbe 6a56 983e 4d9e a83d
00000030: 4a68 863e 79b2 a63c 1699 2b3e 0a6f 65bd
00000040: ccb5 883e 61f2 643d e60e 24be 883c 8e3d
00000050: 5be2 33be ebaa 29bd fc6c 04be 550b 603e
00000060: 4f9f 8ebe 2bbb 18be 0e31 b3bd 18d9 59be
00000070: fc99 b4bc 280e b0be 3d09 9a3e 31c4 96be
00000080: cd4a 8d3e c029 813d dcb5 eabd 70cf 593e
00000090: 9a51 1d3d bf79 8e3e 329d ac3c dbf7 b9bd
000000a0: 5606 b93d f551 d0bd a01c fc3d af41 9b3e
000000b0: e202 363e a351 25be 6521 443e 7f65 9b3d
000000c0: 0f95 403e 2609 5cbe

_impl.layers.0.linear.weight_g f4 [50, 1]
1.0393258 1.0209318 1.1056209 0.9602326 1.0280144 1.0866759 1.3421307 1.1338117
1.1623892 1.2119349 1.2417216 1.0065714 1.3695409 1.0204701 1.1403699 1.0806117
0.9587451 1.2153544 1.1923199 1.2098024 1.4172125 0.9996587 1.2081082 1.3733044
0.91948503 1.522668 1.0730672 1.3588879 1.3908547 1.190206 1.4265422 1.2143983
1.2477517 1.4182175 1.2220002 1.1988062 0.9180527 1.0420498 1.0498959 1.0252829
0.93704325 1.1466742 1.5058273 1.0772835 0.9590971 1.0601283 1.284531 1.1294985
1.1204644 1.3571198
00000000: a108 853f e5ad 823f fc84 8d3f ced1 753f
00000010: fa95 833f 3218 8b3f f0ca ab3f be20 913f
00000020: 2bc9 943f af20 9b3f bcf0 9e3f 55d7 803f
00000030: 1e4d af3f c49e 823f a4f7 913f 7c51 8a3f
00000040: 5270 753f bc90 9b3f f09d 983f ceda 9a3f
00000050: 3867 b53f a2e9 7f3f 4aa3 9a3f 70c8 af3f
00000060: 5f63 6b3f c9e6 c23f 445a 893f 0af0 ad3f
00000070: 8707 b23f ac58 983f ef98 b63f 6771 9b3f
00000080: 54b6 9f3f 2788 b53f 816a 9c3f 7b72 993f
00000090: 8005 6b3f e361 853f fd62 863f 783c 833f
000000a0: 11e2 6f3f 38c6 923f f3be c03f 6de4 893f
000000b0: 6387 753f 49b2 873f 836b a43f 6893 903f
000000c0: 616b 8f3f 1ab6 ad3f

_impl.layers.0.linear.bias f4 [50]
0.5793567 0.5240458 0.50985837 0.54383934 0.5229311 -0.5103045 -0.6084626 -0.48645478
0.54532456 0.55526894 -0.56083196 -0.49917325 -0.56097203 0.5729168 -0.5040041 -0.5210507
0.44546637 -0.517848 0.52628195 0.5017563 -0.6774777 0.51878 -0.5747799 -0.5719259
0.47573057 -0.6170236 -0.5609263 -0.5400345 -0.67051464 0.5353311 0.55381685 -0.56968427
-0.65266186 0.5701987 0.5375691 -0.5321984 -0.49868077 0.583115 -0.51394254 0.51648283
-0.4248432 -0.5585575 -0.5409094 0.5389688 -0.5621231 0.5702527 0.53039545 0.54048926
0.5595686 -0.558187
00000000: b850 143f de27 063f 1486 023f 0e39 0b3f
00000010: d0de 053f 51a3 02bf 34c4 1bbf 9a10 f9be
00000020: 649a 0b3f 1b26 0e3f af92 0fbf a393 ffbe
00000030: dd9b 0fbf adaa 123f 6a06 01bf 9463 05bf
00000040: 2b14 e43e b091 04bf 6aba 063f 1a73 003f
00000050: 2e6f 2dbf c4ce 043f c724 13bf bc69 12bf
00000060: f592 f33e 42f5 1dbf de98 0fbf b33f 0abf
00000070: d9a6 2bbf 750b 093f f1c6 0d3f d4d6 11bf
00000080: d914 27bf 8bf8 113f 219e 093f 283e 08bf
00000090: 1653 ffbe 0647 153f bd91 03bf 3838 043f
000000a0: 0c85 d9be a0fd 0ebf 0a79 0abf dcf9 093f
000000b0: 4de7 0fbf 15fc 113f ffc7 073f 815d 0a3f
000000c0: e33f 0f3f 58e5 0ebf

_impl.layers.1.linear.weight f4 [50, 50]
-0.0050385743 0.08377315 0.0033903772 0.27672705 0.15375032 -0.046402145 -0.04216777 -0.11260935
0.21440876 0.023081532 -0.13434069 -0.19324224 -0.106491886 0.10409579 -0.0827879 -0.15138015
0.23463435 -0.21349777 0.039391503 0.018878413 0.069885895 0.14970136 0.042118188 -0.28668752
-0.07661831 -0.15481015 -0.23100038 -0.022668056 -0.006094664 0.2476848 -0.00054365495 -0.20222253
-0.0691325 0.007894296 0.2330846 -0.16751938 0.0070455237 0.012143274 -0.18282886 0.14935209
-0.03506494 -0.15364595 -0.055773675 0.22673468 -0.19665779 0.039798822 0.22201401 0.06482747
0.071873724 -0.21605243 0.18554789 0.2425776 -0.013885091 0.15704086 -0.0019350123 -0.04368233
-0.31476504 -0.027030105 0.15132952 -0.02794227 0.036786273 0.01573249 0.012218896 0.13614005
-0.044174343 -0.25326085 0.21743675 -0.067770265 -0.024115236 0.19153719 -0.3025214 -0.021250624
-0.26601896 -0.05977469 -0.03522675 -0.33689868 -0.256844 -0.30516097 -0.21729617 -0.013503086
0.3162071 -0.23307219 -0.08579957 0.31724158 -0.015266331 -0.024613397 -0.05865427 0.12616156
0.018701265 -0.015420859 0.037342735 -0.27669337 0.031878475 0.16458431 -0.01548801 0.017704394
0.2900191 0.26951435 0.2743353 -0.30758992 0.059372894 0.06442587 -0.1714183 0.054192975
-0.14779097 0.16056061 -0.064903475 0.17565997 0.07036723 -0.1848058 0.18947433 0.15635939
0.20953436 0.05067047 0.17655104 -0.06986531 0.07162367 0.18711746 -0.18321711 0.07542796
-0.060063332 -0.15514168 -0.064272545 0.20945968 -0.14360319 -0.07208288 -0.063219234 -0.077948906
-0.057842936 -0.18249239 0.079846956 -0.06602815 0.18515843 0.075319216 -0.18525521 0.1840288
0.14293922 0.058474585 0.16223243 -0.1589624 0.14718445 -0.06754171 0.23163685 0.0669383
0.14694571 -0.16179973 0.07813576 0.06923901 0.06636453 -0.07562761 -0.17881028 -0.1792923
0.09426457 -0.16768762 0.08752458 -0.09280462 0.23215622 -0.0997015 -0.20376115 0.09242533
-0.09341632 -0.08951691 -0.09869697 -0.17585139 -0.09742046 0.190221 -0.1711421 -0.099329576
0.09631385 -0.21498622 0.24012156 0.085969806 0.20997104 -0.09713815 0.08501417 0.26587823
0.18608251 0.24086477 0.23512496 0.0933883 -0.25279453 0.21172146 -0.07827184 -0.24667458
0.096140906 -0.09589253 -0.08338625 -0.17864877 -0.08977291 0.086605765 -0.09544998 0.19994335
-0.10727281 -0.1888062 -0.0767433 0.0816429 -0.22747812 -0.19781022 -0.19529013 0.23920141
-0.22427455 -0.23250869 -0.10934336 -0.23197551 -0.11628017 0.00359028 0.20452285 0.028889181
-0.11928711 -0.06868172 0.15938292 0.025956336 0.16903386 -0.23243882 0.12839903 0.2260407
-0.17020954 0.101720415 -0.11944482 -0.22026144 0.19716729 -0.15222724 0.22002438 0.17824692
0.003485153 0.11675251 0.095336646 0.17146243 0.15038103 -0.1616329 -0.16707677 0.11132867
0.11948962 -0.1780455 -0.14166163 0.08132927 -0.0027512875 -0.09935836 0.14712454 -0.10276987
0.050712775 0.13721299 0.026604937 -0.2368046 0.11718051 -0.13845952 -0.20391048 -0.18108563
-0.2100324 0.12476192 0.13394032 0.1392957 -0.15766184 0.12837547 -0.14518623 0.15467677
00000000: a01a a5bb 4291 ab3d 1731 5e3b 2baf 8d3e
00000010: b970 1d3e 2d10 3ebd 1db8 2cbd bb9f e6bd
00000020: f88d 5b3e 7b15 bd3c 9b90 09be 4be1 45be
00000030: 6b18 dabd 2c30 d53d b48c a9bd 6603 1bbe
00000040: fd43 703e 299f 5abe fc58 213d e7a6 9a3c
00000050: 5620 8f3d 504b 193e 1f84 2c3d b5c8 92be
00000060: 0fea 9cbd 8d86 1ebe 5d8b 6cbe 5cb2 b9bc
00000070: bfb5 c7bb 16a1 7d3e 1184 0eba 6c13 4fbe
00000080: 5795 8dbd 1457 013c bbad 6e3e 338a 2bbe
00000090: 23de e63b 95f4 463c 7d37 3bbe c1ef 183e
000000a0: 41a0 0fbd 5d55 1dbe f072 64bd 232d 683e
000000b0: a960 49be 1704 233d a457 633e 44c4 843d
000000c0: 8832 933d d93c 5dbe 4400 3e3e 4366 783e
000000d0: 4b7e 63bc 52cf 203e 3da0 fdba 3eec 32bd
000000e0: e228 a1be 3d6e ddbc 20f6 1a3e 30e7 e4bc
000000f0: 34ad 163d 6ce1 803c c431 483c 4c68 0b3e
00000100: 28f0 34bd 68ab 81be bda7 5e3e 23cb 8abd
00000110: 518d c5bc 5322 443e 16e4 9abe ca15 aebc
00000120: a333 88be 4ed6 74bd ed49 10bd fc7d acbe
00000130: 0f81 83be 0f3e 9cbe e382 5ebe 0c3c 5dbc
00000140: e6e5 a13e 7aaa 6ebe afb7 afbd 7d6d a23e
00000150: a21f 7abc 09a2 c9bc 763f 70bd 7f30 013e
00000160: 6533 993c c5a7 7cbc b2f4 183d c1aa 8dbe
00000170: 0193 023d ca88 283e 6cc1 7dbc ce08 913c
00000180: 627d 943e c9fd 893e ad75 8c3e 6d7c 9dbe
00000190: fe30 733d b6f1 833d 4788 2fbe 74f9 5d3d
000001a0: 8456 17be 006a 243e 1dec 84bd 35e0 333e
000001b0: b21c 903d bb3d 3dbe 8f05 423e ad1c 203e
000001c0: 2d90 563e d78b 4f3d ccc9 343e 8b15 8fbd
000001d0: 6eaf 923d b89b 3f3e 449d 3bbe f979 9a3d
000001e0: f804 76bd 76dd 1ebe 53a1 83bd 997c 563e
000001f0: b70c 13be 30a0 93bd 1679 81bd ada3 9fbd
00000200: b7ec 6cbd 49df 3abe cd86 a33d c439 87bd
00000210: 2c9a 3d3e f640 9a3d 8bb3 3dbe 0c72 3c3e
00000220: a95e 123e 0c83 6f3d 4220 263e 0ac7 22be
00000230: 85b7 163e 4f53 8abd 3632 6d3e f316 893d
00000240: f078 163e d4ae 25be a405 a03d 2fcd 8d3d
00000250: 20ea 873d a6e2 9abd 0b1a 37be 6798 37be
00000260: c80d c13d 4eb6 2bbe 1640 b33d 5910 bebd
00000270: 5cba 6d3e 4d30 ccbd c3a6 50be 7e49 bd3d
00000280: 0e51 bfbd a454 b7bd a321 cabd 6312 34be
00000290: 6184 c7bd 4bc9 423e e03f 2fbe 4e6d cbbd
000002a0: 3240 c53d 5925 5cbe 6de2 753e f010 b03d
000002b0: a602 573e 5ef0 c6bd e91b ae3d 3121 883e
000002c0: 6a8c 3e3e 41a5 763e 99c4 703e 5d42 bf3d
000002d0: 496e 81be 83cd 583e fd4c a0bd 4398 7cbe
000002e0: 86e5 c43d 4e63 c4bd 69c6 aabd b4ef 36be
000002f0: dcda b7bd 5d5e b13d 477b c3bd f3bd 4c3e
00000300: d9b1 dbbd 6a56 41be 972b 9dbd 6534 a73d
00000310: 06f0 68be c38e 4abe 23fa 47be 37f1 743e
00000320: 3aa8 65be c216 6ebe 69ef dfbd fd8a 6dbe
00000330: 4c24 eebd e74a 6b3b 706e 513e 01a9 ec3c
00000340: cd4c f4bd 00a9 8cbd 4735 233e 62a2 d43c
00000350: 3617 2d3e 7104 6ebe 097b 033e 3777 673e
00000360: 694b 2ebe cb52 d03d 7c9f f4bd 378c 61be
00000370: 39e6 493e 75e1 1bbe 124e 613e 5c86 363e
00000380: 2a67 643b f11b ef3d dc3f c33d d993 2f3e
00000390: 7cfd 193e 1883 25be 2c16 2bbe 4900 e43d
000003a0: f9b6 f43d 8f51 36be bf0f 11be f68f a63d
000003b0: f24e 34bb 657c cbbd d1a7 163e 0279 d2bd
000003c0: 33b8 4f3d 9081 0c3e 99f2 d93c e87c 72be
000003d0: 56fc ef3d 55c8 0dbe e9cd 50be 836e 39be
000003e0: bc12 57be 2d83 ff3d a727 093e 88a3 0e3e
000003f0: 1b72 21be dc74 033e b3ab 14be 9663 1e3e

_impl.layers.1.linear.weight_g f4 [50, 1]
1.4458699 1.5752947 1.7926093 1.9410508 1.5547922 1.9897913 2.0084407 1.7422367
1.7810206 1.4999696 2.1736348 2.1035426 1.1913426 1.1110117 1.7895607 1.3262473
1.218086 1.840273 1.7371937 2.2286239 2.2430599 1.6042953 1.6872693 1.4280977
1.5136468 1.5201039 1.7845159 1.772199 1.2140255 1.4437664 1.3989524 1.7204088
1.4548498 1.6725507 1.6378855 1.563212 1.8216722 1.9822717 1.5902058 1.9163116
1.7460701 1.6706319 1.7083856 1.5756283 1.9246184 1.6601968 2.2964966 1.6366894
1.7656524 1.6134067
00000000: 4412 b93f 42a3 c93f 3974 e53f 5a74 f83f
00000010: 6e03 c73f 7bb1 fe3f 4b8a 0040 9d01 df3f
00000020: 7cf8 e33f 01ff bf3f d51c 0b40 71a0 0640
00000030: ea7d 983f a235 8e3f 5310 e53f 79c2 a93f
00000040: 3eea 9b3f 118e eb3f 5d5c de3f c6a1 0e40
00000050: 4b8e 0f40 8c59 cd3f 71f8 d73f e8cb b63f
00000060: 2ebf c13f c492 c23f 046b e43f 6bd7 e23f
00000070: 3065 9b3f 56cd b83f df10 b33f 5b36 dc3f
00000080: 8538 ba3f 2416 d63f 3ba6 d13f 5517 c83f
00000090: 8e2c e93f 14bb fd3f dd8b cb3f b349 f53f
000000a0: 3a7f df3f 44d7 d53f 61ac da3f 30ae c93f
000000b0: e559 f63f 5481 d43f cdf9 1240 0a7f d13f
000000c0: e600 e23f 1c84 ce3f

_impl.layers.1.linear.bias f4 [50]
0.42407313 0.35957426 -0.21075086 -0.2645734 -0.38939595 -0.1400407 0.31277293 0.43492073
0.5053537 0.34551322 -0.19175905 0.26845783 0.22495195 -0.050372142 -0.5037849 0.13732839
-0.24590513 0.412495 0.26843268 0.40006265 0.74198246 -0.12752904 -0.35019875 0.10628214
-0.35387424 -0.38839254 0.4223192 -0.49436948 0.12452765 -0.4684968 -0.2562214 0.22481953
0.39571783 0.1484588 0.4063258 0.39071992 0.42205948 0.1583376 0.12929696 0.28401315
-0.4521571 0.19165044 -0.46456307 -0.3666002 -0.489075 -0.13850762 -0.5455676 -0.17544311
-0.4986158 -0.4363609
00000000: 1d20 d93e 1e1a b83e 13cf 57be 2a76 87be
00000010: e85e c7be d466 0fbe c623 a03e eead de3e
00000020: dc5e 013f 1ce7 b03e 7c5c 44be 4e73 893e
00000030: ce59 663e 0553 4ebd 0cf8 00bf d09f 0c3e
00000040: 8ece 7bbe 8b32 d33e 0270 893e 03d5 cc3e
00000050: 90f2 3d3f f996 02be 404d b3be 73aa d93d
00000060: 012f b5be 63db c6be 393a d83e ff1d fdbe
00000070: 5a08 ff3d d0de efbe 742f 83be 1737 663e
00000080: 879b ca3e 9505 183e ef09 d03e 710c c83e
00000090: 2e18 d83e 4023 223e 6c66 043e 2c6a 913e
000000a0: 2381 e7be 0340 443e 36db edbe 05b3 bbbe
000000b0: 0a68 fabe f1d4 0dbe 51aa 0bbf 5ca7 33be
000000c0: 924a ffbe b26a dfbe

_impl.final_layer.linear.weight f4 [1, 50]
-0.44816604 0.21900235 0.34627733 -0.24595207 0.60600847 0.23707418 0.11344538 0.19264416
-0.40253 0.64391196 0.24692188 0.48924974 -0.3421811 -0.14412099 0.366036 0.17010231
0.19383308 0.39192247 -0.41303036 0.29022598 -0.82664305 -0.24885318 0.36104962 -0.10960154
0.62232375 -0.49526116 0.47516465 0.49795976 -0.120439984 0.47001386 -0.106343456 0.13453434
0.64587843 -0.13426381 -0.48044667 0.59073544 0.37712812 -0.13272136 0.18490128 -0.3586934
-0.38861915 0.2500724 0.46070367 -0.5559222 0.4386867 -0.26713854 -0.78944623 0.22331627
-0.414964 -0.508292
00000000: 0576 e5be 2742 603e 434b b13e dcda 7bbe
00000010: 5f23 1b3f 93c3 723e 0d56 e83d 8344 453e
00000020: 6a18 cebe 6ad7 243f 17d9 7c3e f17e fa3e
00000030: 5c32 afbe 7494 13be 1269 bb3e 4d2f 2e3e
00000040: 2e7c 463e 10aa c83e b778 d3be 8098 943e
00000050: e19e 53bf 5ed3 7ebe 7fdb b83e c676 e0bd
00000060: 9c50 1f3f df92 fdbe c848 f33e 95f4 fe3e
00000070: 3da9 f6bd a8a5 f03e 99ca d9bd 5fc3 093e
00000080: 4a58 253f 747c 09be 1bfd f5be 703a 173f
00000090: f016 c13e 1ce8 07be c356 3d3e a9a6 b7be
000000a0: 17f9 c6be 7d09 803e 5ae1 eb3e eb50 0ebf
000000b0: 8b9b e03e 62c6 88be 2619 4abf 05ad 643e
000000c0: 2976 d4be 6d1f 02bf
