PINNs/model_saved/baseline_A/ckpt_step_003000/u_network.0.pth (torch, 15173 bytes, 7 tensors)

_impl.layers.0.linear.weight f4 [50, 1]
00000000: 23ad 8e3e 5503 983e e4d7 f5bd 55ab 9b3e
00000010: 03c6 7fbd 4bd9 b23d af68 12be dee1 3e3e
00000020: 5d65 953e f5d3 86be cafc 9f3e c9f6 d33d
00000030: f331 7c3e 134f f63c f436 253e 0363 85bd
00000040: 0ba9 8b3e 81f1 253d 6fba 23be 445d ab3d
00000050: 1387 3bbe 44a6 7bbd a73d 04be 7da4 5f3e
00000060: c3ee 8dbe 1383 16be 1a03 8abd 2edc 5ebe
00000070: 4193 4abd 5ec1 abbe 557f a13e b4be 99be
00000080: 3004 8b3e a3eb 0d3d 80ba f7bd ac11 483e
00000090: e117 743d 590c 913e a138 ad3c 0bb8 e5bd
000000a0: a190 c43d 77b1 01be 49cc 213e 0b96 993e
000000b0: d266 4f3e c6ab 1ebe f00b 3d3e 5baf b63d
000000c0: d068 3a3e 53f8 6bbe
0.27866468 0.29690042 -0.120040685 0.30404153 -0.062444698 0.087328516 -0.14297746 0.18640849
0.29178897 -0.26333585 0.3124755 0.10349805 0.24628429 0.030067002 0.16134244 -0.065130256
0.27277407 0.04051352 -0.15989088 0.083673984 -0.18313245 -0.06143786 -0.12914144 0.21840091
-0.27721223 -0.14698438 -0.06738873 -0.2176368 -0.04945684 -0.33545965 0.3154246 -0.30028307
0.27151632 0.03464855 -0.12096119 0.19537991 0.059593085 0.28329733 0.021145167 -0.11216744
0.09597898 -0.12665354 0.15800585 0.29997286 0.20254067 -0.15495214 0.18461585 0.08920165
0.18204045 -0.23043947

_impl.layers.0.linear.weight_g f4 [50, 1]
00000000: baf2 c73f 315d c93f 5e23 d73f 2fac bf3f
00000010: 1b22 c63f e4b0 dd3f ce5a f93f d4e7 e73f
00000020: 43ba e13f 80c8 ee3f fb15 f13f d4f7 c63f
00000030: 077a 0540 5b6c c83f 18d9 e03f 8cac d53f
00000040: 16cf ce3f c945 f13f 1dba ee3f 9449 f33f
00000050: 880a fa3f a00c c33f 3738 e73f 0bc4 0240
00000060: d68f b43f 3bc2 1640 f7d0 d23f 7697 0340
00000070: 26d5 ff3f 7813 ec3f 0c1b 0f40 25d4 e53f
00000080: 60f2 ea3f 3a1f 0840 9d07 ee3f da6f ec3f
00000090: d673 b43f 7600 cf3f b627 d33f 7858 cb3f
000000a0: 3a32 c63f ee4d dd3f 2c10 1f40 9d52 cf3f
000000b0: 686e c03f b9de c83f 41b2 fa3f d912 df3f
000000c0: 4a48 d63f f79d 0340
1.5620949 1.5731565 1.6807668 1.4974421 1.5479158 1.7319608 1.9480836 1.8117623
1.7634968 1.8654938 1.8834833 1.5544381 2.085573 1.5658067 1.7566252 1.6693282
1.6156948 1.8849422 1.8650547 1.9006829 1.9534464 1.5238228 1.806403 2.0432155
1.4106395 2.355605 1.6470021 2.0561194 1.9986923 1.8443441 2.2360258 1.7955366
1.8355217 2.126906 1.8596073 1.8471634 1.409785 1.6172016 1.6496494 1.5886374
1.5484078 1.7289407 2.485362 1.6197087 1.5033693 1.569297 1.9585649 1.7427627
1.6740811 2.0565164

_impl.layers.0.linear.bias f4 [50]
00000000: 73c4 523f 6409 3e3f e793 423f 41e1 433f
00000010: e4e8 3b3f c922 40bf 0b18 71bf e9c9 43bf
00000020: 92c3 5c3f e570 603f d7e0 65bf dcb8 35bf
00000030: 5ca1 70bf 812a 523f 9966 3bbf d1f1 46bf
00000040: a7c3 2d3f 1858 5bbf 2b18 4b3f 1d58 303f
00000050: e65b 98bf 5cc7 3c3f 3445 6fbf b8e9 77bf
00000060: 191f 213f 4ebe 40bf 1445 5cbf a0b7 37bf
00000070: 3541 9dbf ff1e 593f c141 1e3f 7891 6abf
00000080: 8813 80bf fbd3 503f 5551 563f e904 4abf
00000090: 5686 2cbf 7513 613f 95f8 42bf 874d 3f3f
000000a0: a7a7 20bf 7bd6 5fbf a702 26bf af31 4b3f
000000b0: 0e1f 46bf 3aa8 493f 41b5 423f ce39 593f
000000c0: b173 513f df69 4cbf
0.8233101 0.7423308 0.7600693 0.76515585 0.7340224 -0.7505308 -0.9417731 -0.76479965
0.86235917 0.87672263 -0.89796203 -0.709852 -0.93996215 0.82096106 -0.73203427 -0.7771273
0.67876667 -0.85681295 0.7933375 0.6888445 -1.1903045 0.737417 -0.9346497 -0.96841
0.62938076 -0.7529038 -0.86042905 -0.71764565 -1.2285525 0.8481292 0.6181908 -0.9162822
-1.000596 0.81573457 0.8371785 -0.7891374 -0.6739248 0.87920314 -0.76160556 0.7472767
-0.6275582 -0.87436646 -0.648478 0.79372686 -0.77391136 0.7877232 0.7605782 0.8485383
0.81817156 -0.79849046

_impl.layers.1.linear.weight f4 [50, 50]
00000000: d220 993d 876c 913d b991 413e b4d5 943d
00000010: 7070 433e 72e4 3abe 55e9 b0bd 333a 37be
00000020: c227 a93d 292a 523e 70a7 56be d605 3dbe
00000030: 000e 4abe df5c 9b3d 3d99 33be e11b 9bbd
00000040: b15d 8d3d 348e 4abe 94ca 393e 5b93 9c3d
00000050: ca21 babd 632e 453e 4a45 a9bd ba04 59be
00000060: 9c75 2e3e 7860 babd 97f1 a4bd 187b a7bd
00000070: eabf bdbd 9140 4c3e 67a0 a83d 37fc adbd
00000080: dade 7abe 5a12 b03d c440 473e e100 3bbe
00000090: 0b70 39be 0ff4 a03d adb7 44be c66d 443e
000000a0: 9cd8 26be bbfc a6bd 5efd a0bd dc4a 9d3d
000000b0: e2c9 4fbe 3f37 503e 4c11 ab3d cfad a23d
000000c0: c118 9e3d c957 b2bd e065 643e e59a 623e
000000d0: 6e7a 2aba 851e 5a3e f0ab 8fbb b6cb 1e3a
000000e0: 64ed 8cbe 0a66 c9ba 9245 7f3e 9d98 193c
000000f0: 6992 31bc 4d49 cc3b fe30 7fbc 17c8 643e
00000100: 5f7e b93a 44b4 6fbe fac8 613e c633 0cbc
00000110: 3989 8f3b 4d0e 783e 785a 8cbe 0d24 94bb
00000120: 9ace 83be 5ec5 85bc 5ed1 7abc 3e68 89be
00000130: d49e 70be 9132 82be 7aea 8ebe f9e5 f33b
00000140: 10b6 713e 5fd1 82be d744 80bc 51b0 8c3e
00000150: 947d e83b 968e 84bb f0c9 363c 66ce 6c3e
00000160: 03a1 863a e976 42bb 25f3 623c 97d7 7bbe
00000170: d080 07bc 53a2 6a3e 4358 e63a ab91 e137
00000180: 1971 833e a47c 7c3e b3b7 723e d064 89be
00000190: 3693 8e3d f7e5 9d3d eb48 2bbe 3ed9 963d
000001a0: f143 1cbe 1362 333e 9b92 84bd d6af 3c3e
000001b0: ae4b 8e3d d768 35be 15e6 343e 629d 1f3e
000001c0: 6f7a 4b3e 03e3 8e3d a5f1 383e b50d 9bbd
000001d0: 1961 ac3d ccb4 3a3e 6fba 40be b823 af3d
000001e0: 608e 45bd 4c90 18be c3e6 83bd aa0c 413e
000001f0: dfc8 14be d09c 9dbd 6147 8bbd 5a5c a9bd
00000200: 236f 3fbd 6168 36be 0b2d bc3d 2b80 86bd
00000210: c964 1e3e 567b 973d d654 3abe c4b8 3e3e
00000220: 8370 103e 97e6 863d d770 263e eb18 20be
00000230: 052d 273e 6991 8bbd 6072 913e 8504 963d
00000240: 1354 113e 6105 19be f5fc a13d 3c95 903d
00000250: 028d 933d d695 9abd 9ef4 35be 24ea 43be
00000260: eb9f bf3d 86cb 33be b3df bf3d 175d c3bd
00000270: e3f3 623e 31a6 c2bd a133 51be 09f1 ab3d
00000280: 5c35 a8bd 3d73 c5bd 0866 a2bd 5dce 36be
00000290: 963d c8bd 0c0f 4f3e 135f 53be 743b b0bd
000002a0: 306d bd3d 7fce 80be 4988 303e 2034 be3d
000002b0: 9ced 4b3e 52cc 9cbd b774 d03d a4f7 a13e
000002c0: fec2 3d3e 7dd6 8b3e 8075 2f3e ce85 b13d
000002d0: ec49 9fbe 3860 4d3e db86 93bd 1577 8abe
000002e0: 3ec0 b33d e27e bdbd ad1a c6bd 2ce8 35be
000002f0: fb01 bebd c025 bf3d db4d d9bd f651 493e
00000300: 9e96 dcbd 67fe 43be 2ebd b4bd 2446 b53d
00000310: 3902 81be 3402 50be 536b 49be ff40 863e
00000320: c337 00be 7c75 02be 034f 23be 94ac 00be
00000330: 57a6 30be 9849 b63d 1fdd 023e 7e7b cb3d
00000340: 26ab 9bbd 85fd 05be 2870 403e fd2b ea3d
00000350: 0ebb 383e f1ca 03be 1141 253e e605 033e
00000360: 5fc2 bcbd f302 173e c35a 1dbe 8e85 05be
00000370: b2a4 013e 6ae2 48be 0ab6 053e 4462 453e
00000380: 860b c9bd c02d a03d 3ef8 7f3d 72b8 dd3d
00000390: 8809 cf3d bb5b 40be d6eb dabd 0b00 953d
000003a0: 481c 3a3e 17f2 e8bd 4461 30be b4f6 053e
000003b0: 6a89 d73d de52 80bd 7f52 3e3e ed9b 26be
000003c0: 5f48 f63d 8546 af3d 8a9b 513d 2053 08be
000003d0: 3829 3c3e 64c1 43be b540 ffbd 0cd1 dbbd
000003e0: 1b51 fbbd b908 a83d 7ac5 0d3e 5555 1d3e
000003f0: 7962 22be 65b1 113e aae3 19be e300 293e
0.07476963 0.07100778 0.18903245 0.07267323 0.1908586 -0.18251207 -0.086382546 -0.17893295
0.08259536 0.20523895 -0.2096231 -0.18459257 -0.19731903 0.07586073 -0.17538925 -0.07573677
0.06902636 -0.19780809 0.18143684 0.07645293 -0.09088476 0.19255976 -0.08265169 -0.2119321
0.17037052 -0.09100431 -0.08053892 -0.08177775 -0.0926512 0.19946505 0.08233719 -0.08495372
-0.24499074 0.0859725 0.194583 -0.18262054 -0.18109147 0.078590505 -0.19210692 0.191825
-0.16293567 -0.08153673 -0.07860826 0.07680294 -0.20291856 0.20333575 0.083529085 0.079433076
0.07719565 -0.0870815 0.22304487 0.221294 -0.0006503229 0.21300705 -0.00438451 0.0006057577
-0.27524865 -0.0015365493 0.24928883 0.009374765 -0.01083813 0.006234324 -0.0155756455 0.22341953
0.0014152041 -0.2340861 0.22049323 -0.008557266 0.004380372 0.24224205 -0.27412772 -0.004520899
-0.25743562 -0.016329464 -0.015308706 -0.26837343 -0.23498088 -0.25429204 -0.27913266 0.0074431864
0.23604608 -0.25550362 -0.015657825 0.2747827 0.007095048 -0.004045318 0.011156544 0.2312561
0.0010271374 -0.0029672927 0.0138519155 -0.2459396 -0.008270457 0.22913484 0.0017573911 2.6889922e-05
0.25672224 0.24656922 0.23702888 -0.26834726 0.06961672 0.07709878 -0.16727035 0.073656544
-0.15260293 0.17517881 -0.06473275 0.18426451 0.069480285 -0.17715774 0.17665894 0.1558738
0.19870923 0.06976893 0.1806093 -0.07570974 0.084169574 0.18233031 -0.18821119 0.08551735
-0.048231483 -0.14898795 -0.06440499 0.18852487 -0.14529751 -0.07695925 -0.06800724 -0.08269568
-0.046736848 -0.17813255 0.09188279 -0.06567415 0.15468134 0.07396571 -0.18196425 0.1862517
0.1410542 0.0658695 0.16253982 -0.15634505 0.16325767 -0.06814844 0.28407574 0.07325081
0.14192228 -0.14943458 0.07909576 0.07059714 0.072046295 -0.0754811 -0.17769095 -0.19132286
0.09356674 -0.17558107 0.09368839 -0.0953924 0.22163348 -0.09504355 -0.20429851 0.08395583
-0.082133025 -0.096411206 -0.07929617 -0.17852159 -0.097773716 0.20220584 -0.20641737 -0.0860509
0.092493415 -0.25157544 0.17239489 0.09287286 0.1991486 -0.076561585 0.101785116 0.31634247
0.18531415 0.2731208 0.17134666 0.08668099 -0.31111085 0.20056236 -0.07203456 -0.27043977
0.08776902 -0.092527166 -0.09673057 -0.17764348 -0.092777215 0.09333372 -0.10610553 0.19660172
-0.107709154 -0.19140016 -0.08825146 0.08851269 -0.25197008 -0.2031334 -0.19669847 0.26221463
-0.12521271 -0.12740129 -0.1594811 -0.12565833 -0.17250954 0.08900756 0.12779664 0.09935664
-0.07601003 -0.13084991 0.18792784 0.11434171 0.18040106 -0.12870385 0.16138102 0.12795219
-0.09216761 0.14747219 -0.15366654 -0.13039228 0.12660483 -0.1961762 0.13057724 0.19275767
-0.09816651 0.07821226 0.0624926 0.10826196 0.1010924 -0.18784992 -0.106895134 0.07275399
0.18174851 -0.113743 -0.17224604 0.13082391 0.105242565 -0.06265806 0.18586157 -0.16270418
0.120255224 0.085583724 0.051173724 -0.1331296 0.18375099 -0.19116741 -0.12463514 -0.10733232
-0.12271329 0.08204789 0.13844863 0.15364583 -0.15857877 0.14227827 -0.15028253 0.16504245

_impl.layers.1.linear.weight_g f4 [50, 1]
00000000: 5acc 5d40 8ddd 5540 b91e 4240 b121 3d40
00000010: 1cda ee3f 545a 5940 0728 6240 4c4e 6440
00000020: 5351 2940 20f8 e73f f41c 7140 b6ab 4940
00000030: 6ed8 1f40 10d6 cf3f 04bb 2b40 df8d c73f
00000040: 618f 6440 81db 3140 4781 3a40 5e3d 6640
00000050: 6cf0 2940 8b6f 1240 bc56 1c40 a0fc 1040
00000060: 825e e93f 887b f13f 78d6 2440 8cd5 3240
00000070: 8dbb e03f 5d31 4e40 fc17 1840 a444 0e40
00000080: d2cd 5e40 6219 1540 074f 1140 9c69 0340
00000090: 5016 3040 f54c 7140 b3de 0d40 7ec8 4d40
000000a0: f151 2040 cb60 1e40 6edb 2240 e765 1140
000000b0: 3e0a 3d40 bedf 1d40 0b8e 3640 1e7c 3440
000000c0: d98f 2740 3897 1540
3.4655976 3.3416474 3.0331252 2.9551814 1.8660312 3.3961382 3.533693 3.5672789
2.6455886 1.8122597 3.7673922 3.1511054 2.4975848 1.6237202 2.6832895 1.5590171
3.5712512 2.7790225 2.9141405 3.5974956 2.6552992 2.288058 2.4427938 2.265419
1.8231966 1.8865824 2.5755901 2.7942839 1.7557236 3.221763 2.376464 2.2229395
3.4813123 2.3296742 2.2704484 2.053321 2.7513618 3.770322 2.2167175 3.215362
2.5050013 2.4746578 2.544643 2.2718446 2.9537501 2.4667811 2.8524196 2.8200755
2.6181548 2.3373547

_impl.layers.1.linear.bias f4 [50]
00000000: 10b1 383f 3d70 753f ae64 89be c58b 80be
00000010: 2d3d e2be e9f2 31be 90e8 913e 9c49 a73f
00000020: fcd6 273f 80cd ca3e 40b1 6fbe da49 893e
00000030: 3e45 de3e 1b12 ab3d 6611 29bf 9571 463e
00000040: 6060 8abf 686d 043f a1f5 9e3e 43cb cd3e
00000050: 5f9d 803f 6261 ccbd 9a30 f2be a847 023e
00000060: 24fa ccbe eadc dbbe 61dd 043f 8479 25bf
00000070: d830 683e b208 2ebf 599a 04bf 15ab 963e
00000080: 5292 4e3f a400 253e 963a 023f 5069 dd3e
00000090: 309b 063f 91df 483e 8345 e63d 9080 b93e
000000a0: 82e5 0bbf f341 133e aebd 17bf 1bee b4be
000000b0: b4af 29bf f2a7 cabd 774e 51bf ab6d 55be
000000c0: e62f 19bf 2463 ffbe
0.72145176 0.9587439 -0.26834625 -0.25106636 -0.44187298 -0.17377819 0.28497744 1.3069339
0.65562415 0.3960991 -0.2340746 0.26814157 0.43412203 0.08353063 -0.6604217 0.19379266
-1.0810661 0.5172944 0.31046775 0.4019414 1.0048026 -0.09979512 -0.47302705 0.12722647
-0.40034592 -0.42941982 0.519003 -0.64638543 0.22674882 -0.6798202 -0.51798016 0.294274
0.8069202 0.16113526 0.50870645 0.4324441 0.5258055 0.19616534 0.11243727 0.36230898
-0.54647076 0.14380626 -0.59273803 -0.3533791 -0.66283727 -0.09895314 -0.8176035 -0.20842616
-0.5983871 -0.49880326

_impl.final_layer.linear.weight f4 [1, 50]
00000000: 6d2d 8abf b49f 363f 3227 2a3f f075 a8be
00000010: b962 1e3f bbf4 163f ca47 de3e 941f 5e3f
00000020: 147e d9be 35f8 4d3f faab 4d3f 2144 423f
00000030: 8087 0ebf 7344 4dbe cf88 cb3e 74b0 34bf
00000040: 27b2 b43f 9bfe 023f 1214 28bf 4317 483f
00000050: 3f7d febf 9d36 46bc 2653 a53e 9180 323f
00000060: 33a9 fa3e 98f3 eebe 02b1 0d3f cee4 093f
00000070: 4a84 803f 26a9 623f 5334 9dbc 7aad 81bf
00000080: 3683 cb3f 9296 b43d 02fb d1be 9a96 0f3f
00000090: e0f9 fb3e b737 20bf 21b0 55be 2f65 50bf
000000a0: 5393 e9be fd4e e03d ebef e33e 85d3 1dbf
000000b0: 38df 093f 6cab f2bd 5f4c f7bf a7e5 ad3e
000000c0: 7427 01bf b234 02bf
-1.0795113 0.7133744 0.6646606 -0.3290248 0.6186939 0.5896718 0.43414146 0.86766934
-0.42479002 0.8045686 0.8034054 0.75885206 -0.55675507 -0.20045643 0.39752814 -0.70581746
1.4116868 0.5116975 -0.65655625 0.78160495 -1.9881972 -0.012097982 0.3229 0.69727427
0.48957214 -0.46670222 0.5534822 0.53864753 1.0040371 0.8853935 -0.01918999 -1.0131066
1.5899417 0.088177815 -0.41011816 0.56089175 0.49214077 -0.62585014 -0.20867969 -0.81404394
-0.45620212 0.10952566 0.4451898 -0.6165088 0.5385623 -0.118491024 -1.9320182 0.33964273
-0.50450826 -0.50861657
