PINNs/model_saved/reg2d_A/u_network.0.pth (torch, 26694 bytes, 10 tensors)

_impl.layers.0.linear.weight f4 [50, 2]
000000 42 77 af be d5 a6 31 3e 8b af b3 3d b6 41 4c be
       -0.34270674 0.17348798 0.087737165 -0.19946942
000010 f5 85 9e be 5e f1 9f be bf 2e 9f 3e 7b be e9 3d
       -0.30961576 -0.31238836 0.31090352 0.114132844
000020 73 6a 8d 3d 71 35 f7 bc 7b 56 1e 3e 2e e0 09 3d
       0.06905069 -0.03017685 0.15462677 0.03366106
000030 df f6 ee 3d 35 7b ef 3d c6 79 2c be af f8 2d be
       0.11668181 0.11693422 -0.16843328 -0.16989397
000040 72 34 c5 3d b8 2c b3 3d c0 47 61 3e 0b a9 8b be
       0.09629144 0.08748764 0.22000027 -0.27277407
000050 d9 a6 13 3e 9b d3 ab be 33 89 83 3c 2a de 9d be
       0.14419116 -0.3355988 0.016056633 -0.3083356
000060 60 e3 39 be c7 3a 3a be 7b 3e 9b 3e 70 76 9b 3e
       -0.18153143 -0.18186484 0.30321106 0.30363798
000070 41 b0 37 be 89 44 83 bc c9 34 91 be f3 2a 91 be
       -0.1793833 -0.016023891 -0.28360584 -0.2835308
000080 d3 ef 2f be c1 4b 36 3d 9c 16 9a be 99 f1 a6 bd
       -0.1718133 0.04450584 -0.30095375 -0.0815155
000090 31 56 28 3e f0 9b 44 3b 1a a8 2b bc 93 57 c7 3d
       0.1643913 0.0030000173 -0.01047709 0.097335
0000a0 dd 6c b8 3e 85 3c 89 be 56 e1 81 be ed 26 30 3e
       0.36020556 -0.26803985 -0.2536723 0.17202349
0000b0 77 8f 0d 3e 9d 7d 83 3e aa 8b 8c 3e fa 36 80 be
       0.13824259 0.25681773 0.27450305 -0.25041944
0000c0 7f 60 b8 bd 2d ae 98 be 12 bf 2d 3e 67 a7 2d 3e
       -0.0900278 -0.29820386 0.16967419 0.1695839
0000d0 89 24 68 be 2c e1 66 be db 0c 2f 3e de 4c ca 3d
       -0.22670187 -0.22546834 0.17094748 0.098779425
0000e0 da 1c 7c be f5 b0 29 bc c2 48 79 be 33 17 f3 3d
       -0.24620381 -0.010357131 -0.24344161 0.11869659
0000f0 91 bd a5 3d ce 65 a5 3d 9a ee ed bc ef 2a 8f 3c
       0.080927975 0.08076058 -0.029044438 0.017476527
000100 2f 7c 78 be f5 2a a8 3e 4e 15 2a bd f3 5a 63 3c
       -0.24266122 0.32845274 -0.041524224 0.013876664
000110 88 f9 a2 3c ec ac b1 be 4d 08 9e 3d 30 eb 9d 3e
       0.019894376 -0.3470224 0.07716427 0.30843496
000120 43 a1 35 3e ce 88 98 3d 8b 3c a7 3d b0 ed a6 3d
       0.17737298 0.074479684 0.081658445 0.08150804
000130 4e 1d 00 3c 88 6c 4d 3e 86 3a ea 3d fa 7e e9 3d
       0.007819487 0.20060933 0.11436944 0.11401172
000140 ae dd 57 be 96 21 39 bd c4 04 61 3e de 6b 60 3e
       -0.21080658 -0.045198046 0.21974474 0.21916148
000150 df b3 54 be 18 d8 cc 3d d1 1b 66 be 8b 87 c3 3d
       -0.2077174 0.10002154 -0.22471549 0.09547337
000160 fd d0 ee 3d 4a 69 57 be 0d ea 81 3e d0 19 78 3e
       0.11660955 -0.21036258 0.2537388 0.24228597
000170 4d b5 36 3e 74 6c 1d 3e 55 24 91 3e c4 35 10 bb
       0.17842598 0.15373403 0.28348032 -0.0022004703
000180 5b 91 40 be 6e c9 ce 3d aa 68 1f be c6 18 ad 3d
       -0.18805449 0.100970134 -0.1556727 0.08451991

_impl.layers.0.linear.weight_g f4 [50, 1]
000000 17 45 63 3f ff da 43 3f ea 66 80 3f 1e b9 79 3f
       0.887773 0.76506037 1.0031407 0.9754809
000010 fb ab 61 3f bf 83 7f 3f 14 4c 80 3f 03 28 80 3f
       0.88153046 0.99810404 1.0023217 1.0012211
000020 3e 70 80 3f 38 85 4c 3e ef 49 5c 3f 6d 0e 80 3f
       1.0034254 0.19972694 0.86050314 1.0004402
000030 f1 fc 75 3f 0e 8a 80 3f 83 ec 7c 3f 41 62 80 3f
       0.9608908 1.0042131 0.9879839 1.0029985
000040 74 07 7c 3f d0 57 76 3f 17 70 7e 3f 9a 7a 75 3f
       0.9844887 0.9622774 0.99389786 0.958902
000050 c7 74 3d 3f 82 24 4b 3f 02 7e 75 3f df 72 f3 3e
       0.74006313 0.7935258 0.958954 0.47548577
000060 27 65 72 3f ab 7a 80 3f 6d 8a 80 3f 92 59 73 3f
       0.94685596 1.0037435 1.0042244 0.9505855
000070 a5 47 81 3f ae 5b 5b 3f e7 ab 75 3f da 8f b3 3d
       1.0099989 0.8568677 0.9596543 0.08767672
000080 1b 4a 36 3f 30 ac 73 3f 40 c6 70 3f fa de 78 3f
       0.71206826 0.9518461 0.94052505 0.97215235
000090 fa a6 72 3f 4f f9 75 3f 57 54 82 3f 05 51 80 3f
       0.94786036 0.9608354 1.0181988 1.0024725
0000a0 58 cb 7e 3f c7 5e 80 3f 10 7d 56 3f 70 4b 78 3f
       0.9952903 1.0028924 0.8378458 0.9699011
0000b0 86 45 59 3f 30 cb 76 3f c4 d2 6b 3f 77 65 76 3f
       0.8487171 0.9640379 0.9211848 0.96248573
0000c0 20 9c 72 3f 52 cf 52 3f
       0.9476948 0.82347596

_impl.layers.0.linear.bias f4 [50]
000000 b0 a0 82 bc 79 90 b4 bc 10 79 83 bd a4 e5 bc b9
       -0.015945762 -0.022041546 -0.06419575 -0.0003602925
000010 ed 83 1e 3c 23 30 6d bb a7 56 e3 3c ba 98 bc bd
       0.009675008 -0.0036192022 0.02775128 -0.09208818
000020 88 32 89 3d 22 32 cf bc 5c e7 fd bc f4 3a 4e bc
       0.06699091 -0.02529246 -0.03099411 -0.012587298
000030 9d 59 06 bb bb e8 89 3d ac a1 1f bc 59 19 2c bd
       -0.002050019 0.06733843 -0.009743135 -0.04201636
000040 4e 5c 5e 3c 38 c5 c4 ba 63 06 61 3b 49 3d bf bb
       0.013571812 -0.0015012389 0.0034336082 -0.005836163
000050 40 e2 04 3d 34 b5 53 bc 57 8e 80 3c 64 79 ab 3b
       0.03244233 -0.01292162 0.015692873 0.0052329767
000060 9b 3a 2e bc 92 4a 61 3d c7 76 15 bd af f6 52 bc
       -0.01063409 0.055002756 -0.036490228 -0.012876197
000070 2c c7 6c bc 2d ad d9 bc a5 6a 4c 3d 29 39 49 bc
       -0.014451783 -0.026571834 0.04990639 -0.012281694
000080 65 b7 72 3c f0 92 84 3c 90 62 88 bb 99 a1 ed bb
       0.0148142325 0.016183347 -0.00416214 -0.00725193
000090 90 df 44 bb bf 5f 68 3d 8a 71 0f 3c 62 3a 91 3d
       -0.003004048 0.056731936 0.008755097 0.07091214
0000a0 23 52 11 3b 6a 0e 9c 3d ba 66 c7 bc b4 22 d5 3a
       0.0022174201 0.07619937 -0.024340976 0.0016260953
0000b0 86 87 0b bc c2 41 59 3a 68 d3 70 3c fb f0 8c bb
       -0.008516198 0.0008287692 0.014698841 -0.004301188
0000c0 d1 eb 95 39 04 8b 82 bc
       0.00028595192 -0.015935428

_impl.layers.1.linear.weight f4 [50, 50]
000000 30 32 63 be df 5f 22 be f5 e7 54 be 0b c5 c7 39
       -0.22187114 -0.15856884 -0.2079161 0.00038103046
000010 d3 50 17 bc 84 8e 83 3c ac af ee bc 18 31 47 3e
       -0.009235579 0.016059168 -0.029136501 0.19452322
000020 0d 09 65 3e 68 8f 45 be 9c ed f2 bd 3f 11 78 3e
       0.22366734 -0.19292986 -0.11861727 0.24225329
000030 b1 f0 4f be c5 fe 42 be 8b 37 24 be 23 33 ff bd
       -0.2030666 -0.190425 -0.16036813 -0.124609254
000040 9c 98 3d be 36 b3 a3 3d c9 0d 04 be ef 91 07 3e
       -0.18515247 0.07993166 -0.12895884 0.13239263
000050 87 4c 12 be ab 00 c3 bd b6 82 55 be 74 cc 12 be
       -0.14287005 -0.09521612 -0.20850644 -0.14335805
000060 e8 87 7f 3d dc b3 30 be 6f 2a 93 bd d4 7c 00 be
       0.06238547 -0.17256111 -0.07185828 -0.12547618
000070 7e e8 f0 bc 64 01 24 be e7 df 02 3e 0b cb 46 be
       -0.029407736 -0.16016155 0.12780724 -0.19413392
000080 dd c1 86 bd 9c c4 e6 3c fc 1f 75 3e a8 40 ac 3e
       -0.06579945 0.028169923 0.23937982 0.3364308
000090 98 87 19 3c 1d 20 92 bc 0f 79 31 be 0d 12 86 3b
       0.009370707 -0.017837578 -0.17331336 0.0040915073
0000a0 23 f9 a8 3d 34 26 ff bd b2 42 07 be 1c d6 fe 3d
       0.08250644 -0.124584585 -0.13209036 0.12443182
0000b0 fa 48 16 3e f3 0c 57 3e d5 fa af bd 81 36 44 be
       0.14676276 0.21001033 -0.08592764 -0.19161417
0000c0 f4 0b 92 be e7 fb 34 3e 88 25 15 be df 32 83 be
       -0.28524745 0.17674218 -0.14565098 -0.2562475
0000d0 97 90 ca 3d 7d c4 ac bd 1f 3c 1f be 00 1b cc 3d
       0.098908596 -0.08435915 -0.15550278 0.09966087
0000e0 ae a5 63 be 0f 8b 55 3e d4 4b 25 3e 5e 1b 26 3e
       -0.2223117 0.20853828 0.16142207 0.16221377
0000f0 01 34 23 bd d9 b1 72 3e 98 54 96 be b7 2c 1e 3e
       -0.039844517 0.23700656 -0.29361415 0.15446745
000100 53 fb b3 bd 74 1c b2 bd 6d 8e 92 bd 35 ef 23 3e
       -0.08788171 -0.08696833 -0.07156072 0.16009219
000110 4e be 73 bd a7 02 ce 3d a5 f4 a0 3d d2 0d 04 be
       -0.05950766 0.100591 0.07859162 -0.12895897
000120 98 80 4d be fa 27 7d 3e 48 ce 43 3e f3 c5 cf 3d
       -0.20068586 0.24722281 0.19121659 0.10145178
000130 fe ca c2 3e 37 0d 69 be 6b 2c 18 be bb ad 1b be
       0.38045496 -0.22758947 -0.14860694 -0.15202992
000140 fd eb 71 bd 95 d9 d2 bd 19 32 0a 3e 19 c9 6e bc
       -0.059062947 -0.10295407 0.13495673 -0.014574313
000150 81 3d 9f 3d cd 62 4f bd 4a ed 83 3e c6 59 03 3e
       0.07775403 -0.050631333 0.25766975 0.12827215
000160 4b 3e 44 3e 00 ec 06 3e fa 29 d8 bc 71 59 2f 3e
       0.19164388 0.13175964 -0.026387203 0.17123963
000170 26 42 c5 3d 59 8f d5 bd 7f 6c af 3d d1 6b aa 3a
       0.096317574 -0.10427732 0.08565616 0.0013002102
000180 a1 a0 87 bc 96 b0 05 be 5a 96 04 be e7 0c 47 bc
       -0.016556086 -0.13055643 -0.1294798 -0.012149072
000190 0b 59 0f be 35 d7 35 3e 6e ab 8c bd b3 ca 8d bd
       -0.13998811 0.17757876 -0.06868635 -0.069234274
0001a0 17 5c f6 3c 23 29 9e 3b f5 3f 50 be 53 98 7e 3d
       0.030073209 0.004826681 -0.20336898 0.062156986
0001b0 d8 b1 17 be 15 51 08 3c 20 72 c2 bd 20 2b 29 bd
       -0.14813936 0.008320113 -0.09494424 -0.041300893
0001c0 93 9a 8c 3e 05 34 d1 3d 07 db 1a 3e 85 9c 5e be
       0.2746168 0.10215 0.15122615 -0.21739395
0001d0 30 68 c5 bd e1 2b bf 3d 73 d8 c4 bd 4d f5 ec bc
       -0.09639013 0.09334541 -0.09611597 -0.028925562
0001e0 07 4b 43 be 80 2f 8f be be ed 77 bd 10 89 a5 be
       -0.1907159 -0.27965927 -0.060529463 -0.32331133
0001f0 e1 07 94 3d ed 48 55 bc 2a 1c 47 3e d4 2c 33 3e
       0.07228065 -0.013017875 0.19444337 0.1749757
000200 a7 ea 41 3e 95 20 db bd 23 e2 a9 3d 51 91 cd 3e
       0.18937169 -0.10699574 0.08295085 0.4014993
000210 0c 8f 1c be 6c a0 d8 3c 13 16 10 3d 91 63 ec bc
       -0.15288943 0.026443683 0.0351773 -0.02885607
000220 02 8e 9b bd 16 c5 f3 bd 42 46 ff bd 32 90 25 3e
       -0.07595445 -0.119028255 -0.124645725 0.16168287
000230 34 21 c5 3d 30 e3 d3 3d ba b7 b4 3d 2a 71 e1 bd
       0.096254736 0.10346067 0.088241056 -0.110079125
000240 8c a8 78 3e 24 7b 93 3c 38 4e 19 3e c4 2f a2 bd
       0.24283046 0.018003054 0.14971244 -0.07919267
000250 99 02 c5 3d e2 9c 39 bc 28 a1 b5 bc 47 0e 94 bd
       0.09619636 -0.011328908 -0.022171572 -0.07229286
000260 3c 15 bc 3c b6 7a 78 3e ef 0f 37 3e 63 df b9 3d
       0.022959344 0.2426556 0.17877172 0.09075811
000270 01 17 66 3d 97 01 aa 3d 50 b2 3b bd 3c 5e ad 3e
       0.056174282 0.083010845 -0.04582435 0.33860958
000280 e7 fc 70 bc fb f7 c6 bd 83 a5 a1 3e 20 76 24 3d
       -0.014708734 -0.09715267 0.31571588 0.040151715
000290 88 23 18 be 08 2d 4b be 4b 73 31 3e 1f 8c 4b be
       -0.14857304 -0.19841397 0.17329137 -0.1987767
0002a0 5a 16 5f 3c 83 a7 6f bd dd 53 b3 be 9b c2 13 bb
       0.013616169 -0.05850936 -0.3502492 -0.0022546414
0002b0 82 2d ac 3d eb 1e 36 3e 09 f6 ae bd af d5 57 3e
       0.084071174 0.17785232 -0.08543021 0.21077608
0002c0 19 bf 5c 3e ad c1 91 bc c2 e7 37 3e 24 0c 9a 3e
       0.21557273 -0.017792547 0.17959502 0.30087388
0002d0 70 ed 8d be e7 fb 67 3e ea 65 c8 bc aa 81 4b 3d
       -0.27720213 0.22654687 -0.024462659 0.049684204
0002e0 00 fc 07 3e dc cf 87 bd 8c 07 32 3b 84 cb 3f 3e
       0.13279724 -0.06631443 0.0027165143 0.18729979
0002f0 fd 6a 16 bd 75 73 52 3e 41 3d 08 bd 7a ce 79 be
       -0.036723126 0.20551856 -0.03326154 -0.24395171
000300 2d e5 fc 3c d9 d2 ac bd 50 17 18 be 82 03 9f bd
       0.030870998 -0.084386535 -0.14852643 -0.07764341
000310 a4 11 ce 3d 28 e2 19 bd cb 29 eb bd 9d cb ed bd
       0.100619584 -0.037569195 -0.11482581 -0.11611102
000320 90 c7 d2 bd 1a 37 98 3e d6 17 00 be ea 8c 55 bd
       -0.1029197 0.2972954 -0.12509093 -0.05213634
000330 3d b1 46 3d d3 6d 19 3d 4d ee 9f bd 49 e9 85 be
       0.04850887 0.037458252 -0.07809124 -0.26154545
000340 53 47 cd 3d 30 15 b8 3e 1a 19 39 be 5c 7a 61 bc
       0.1002337 0.35953665 -0.18075982 -0.013762083
000350 e4 d3 1f 3e fe ad 07 be ed aa bc 3d fe 9b a7 3c
       0.15608174 -0.13249967 0.09212289 0.020460125
000360 c5 64 a4 3d 69 a4 0f 3e 51 c1 3b 3e 57 55 8c bb
       0.08027033 0.14027561 0.18335463 -0.0042826342
000370 f8 da 8b bd 49 70 eb bd ae 35 b2 3d d5 0d 91 be
       -0.06828874 -0.11496026 0.08701645 -0.28330866
000380 7d ff 9e bd f6 1f cb bc 4d e7 64 bd 98 72 af 3d
       -0.07763574 -0.024795514 -0.055884648 0.08566779
000390 80 72 9a 3d d9 5f 9e 3e 7a 25 75 be e2 aa 0e 3f
       0.075413704 0.309325 -0.23940077 0.55729496
0003a0 8b 8e 1a be 30 31 04 3d b3 fe df 3d 89 7f 3e 3c
       -0.15093438 0.03227347 0.10937252 0.011627086
0003b0 fa 5a 0d be a5 92 23 bd a4 39 58 be 1a 0f 23 bd
       -0.13804236 -0.039934773 -0.21115738 -0.039809324
0003c0 06 c3 cd bd fd 25 36 3e 7c 64 26 3e 6d ef a9 bd
       -0.100469634 0.17787929 0.16249269 -0.0829762
0003d0 47 a3 44 be 5d 06 ad bd 78 a9 1f 3e 3d a3 d8 3d
       -0.1920291 -0.08448479 0.15591991 0.1057801
0003e0 f6 1d af bd e5 26 40 be b9 83 65 3e 6e 9f 1a 3e
       -0.085506365 -0.18764837 0.2241353 0.1509988
0003f0 2e 2e be 3d 85 8f 9f bc 23 76 b2 3d 8f 97 8a 3d
       0.09286152 -0.019477615 0.08713939 0.06767189

_impl.layers.1.linear.weight_g f4 [50, 1]
000000 76 f0 76 3f 66 30 75 3f d5 e5 82 3f 97 df 64 3f
       0.96460664 0.95776975 1.0226389 0.8940367
000010 dd de 9d 3f 51 bc 82 3f a6 2f 5e 3f a5 25 62 3f
       1.2333637 1.021372 0.86791456 0.8833869
000020 73 c6 8b 3f cc b6 71 3e 4f 60 e0 3e 2c c7 70 3f
       1.0919937 0.23604888 0.43823478 0.9405391
000030 de 86 57 3f 43 f5 7d 3f 3f a9 39 3f 5e aa 79 3f
       0.84190166 0.99202365 0.72523874 0.97525585
000040 59 51 6d 3f 09 cc ef 3e 0d 39 7f 3e 2c 7f 82 3f
       0.9270225 0.46835354 0.24924107 1.019506
000050 64 32 60 3f 66 2f 86 3f d4 6c 79 3f 27 28 5a 3f
       0.8757689 1.0483215 0.97431684 0.8521752
000060 89 00 3f 3f 18 e5 80 3f 75 13 78 3f d0 a9 2b 3f
       0.7461019 1.0069914 0.9690469 0.6705599
000070 f4 e1 a3 3f 8d c5 ac 3f e6 98 a7 3f 00 b7 75 3f
       1.280333 1.3497788 1.3093536 0.9598236
000080 f3 53 49 3f b0 0c 78 3f de 76 71 3f 8c ad 4d 3f
       0.7864372 0.9689436 0.94322 0.80342937
000090 9f e4 78 3f 20 fa 66 3f b1 36 3f 3f 67 f7 83 3f
       0.9722385 0.9022541 0.7469283 1.0309876
0000a0 57 45 67 3f 8c d2 73 3f 05 e1 65 3f 15 db 50 3f
       0.9034018 0.95243144 0.8979648 0.8158429
0000b0 11 fc 2c 3f 12 a3 67 3f d7 3f 83 3f 36 9e 61 3f
       0.6757212 0.904832 1.0253857 0.88132036
0000c0 19 59 4e 3f 59 3f 5b 3f
       0.806047 0.85643536

_impl.layers.1.linear.bias f4 [50]
000000 19 d8 0d 3e 5b 36 24 be e8 51 95 be 79 4d 42 be
       0.13851966 -0.1603636 -0.29164052 -0.18974866
000010 b1 6a 47 3e b1 0f a4 3e 27 f0 1e be 64 04 85 be
       0.19474293 0.32043222 -0.15521298 -0.25979912
000020 22 90 b2 3e 94 d3 1e be dc 9e 9e bd 84 21 91 be
       0.3487559 -0.15510398 -0.07745144 -0.28345883
000030 08 a5 4e 3e 95 0d 6e be 3c 98 6b 3e 1d d8 9a be
       0.20180142 -0.23247369 0.23007292 -0.30243006
000040 2c dd a3 be a6 86 99 be a0 bf 1c 3e ce 31 9f be
       -0.32004678 -0.2998554 0.15307474 -0.31092685
000050 89 9f 7a be f1 3b 8e 3e d0 ce 85 be 9f d5 00 3e
       -0.2447492 0.27780107 -0.26134348 0.1258149
000060 f7 9e 99 3e c1 18 85 3e 79 bb 91 3e 0d e3 44 be
       0.30004093 0.25995448 0.28463343 -0.19227238
000070 be 6f 94 be eb e5 c2 be 5c 2e 8f be 60 18 69 be
       -0.28991503 -0.38066038 -0.27965057 -0.22763205
000080 b9 6b 7e be 2a d3 6a 3e 79 4c 71 be e9 86 36 3e
       -0.2484578 0.22932115 -0.23564328 0.17824902
000090 81 02 96 3e 1a be 61 3e a5 34 87 bd 29 c5 8e be
       0.29298785 0.22045174 -0.06601838 -0.27884796
0000a0 0e 55 83 3e c7 8c 96 be 24 1f 76 be c4 bc f0 bd
       0.2565083 -0.2940428 -0.24035317 -0.11754754
0000b0 be 7e 70 3e 41 66 46 be 51 9c 8c be 79 30 74 be
       0.23485848 -0.19374944 -0.2746301 -0.23846616
0000c0 1c 92 36 3e 5d 1a 69 3e
       0.17829174 0.22763963

_impl.layers.2.linear.weight f4 [50, 50]
000000 b7 9e 45 be a7 ea 01 bb 91 e1 e8 bd 22 59 fe bd
       -0.19298826 -0.0019823702 -0.113711484 -0.124193445
000010 e0 93 9d bd 04 b7 95 be 82 4e 7d 3e bc 9a 04 3e
       -0.076942205 -0.29241192 0.2473698 0.12949651
000020 18 ae 92 bc 4f 38 aa bd c0 1d b3 3c f3 bf 19 3e
       -0.01790528 -0.08311521 0.021864772 0.15014629
000030 41 9b ab bd 61 05 60 3e ea c4 19 be 51 b8 04 bd
       -0.08379222 0.21877052 -0.15016523 -0.03240234
000040 09 ac fd bd 08 b2 28 be c4 8b 42 3c b3 b5 e5 bd
       -0.12386329 -0.16474164 0.011874143 -0.11216297
000050 0a 72 f3 bd 0a 30 2d be ed 22 fd bd 00 b6 a7 bd
       -0.118869856 -0.16912857 -0.12360177 -0.081890106
000060 7a 6e 49 be a6 b3 43 3e 62 18 0d bd 52 8c bf 3d
       -0.1967105 0.19111499 -0.03444708 0.09352936
000070 8f 62 4e bd f7 f8 ae 3e 88 22 16 be e0 44 14 3e
       -0.05038696 0.3417432 -0.1466161 0.14479399
000080 67 fa 83 bd c7 6d 82 be fb 52 29 3e ec 4d f7 3c
       -0.06444245 -0.25474378 0.16535561 0.030188523
000090 17 bd 85 bd 16 15 35 3d a5 2d 54 3d 07 8c 23 3e
       -0.06530207 0.044209562 0.051801343 0.15971385
0000a0 90 22 7d be 59 d2 90 3e e1 38 13 be 2a b7 51 3e
       -0.24720216 0.28285483 -0.14377166 0.20480028
0000b0 e9 f2 14 be 87 e7 4b bd 18 32 31 3e ba e2 33 3e
       -0.14545788 -0.04978135 0.17304265 0.17566958
0000c0 d4 8b 84 bc cd 1e 88 3c f7 3a 55 be 83 26 99 3d
       -0.016179956 0.01661625 -0.20823275 0.07478049
0000d0 8d f7 80 3e be 3b 56 3e 13 29 47 be f7 b1 e0 3d
       0.25188866 0.20921227 -0.19449262 0.10971444
0000e0 8f 26 7f 3e 7d a0 32 3e d5 5c 83 3c da b4 19 be
       0.24917053 0.17444034 0.016035477 -0.15010396
0000f0 d3 d7 e5 3d c9 64 83 3d 71 64 bf bd 21 1c 08 3e
       0.11222806 0.064157076 -0.093453296 0.1329198
000100 e4 cf 32 be b4 c8 47 3e c1 08 1d bc 4b 2c fd 3d
       -0.17462116 0.19510156 -0.009584607 0.12361964
000110 5d a0 4b bd a4 85 0c be 3d ed b2 3d 5d 57 27 3e
       -0.04971348 -0.13722855 0.08736656 0.1634192
000120 7a c2 43 3e 8b c1 a5 bd 2f bb 14 be d0 c3 25 be
       0.19117156 -0.08093556 -0.1452453 -0.16187978
000130 fd 22 9c be 01 5d aa 3d 10 96 57 3e 5a ae de 3d
       -0.30495444 0.0831852 0.21053338 0.10873099
000140 df b3 a4 bd db ae f3 3d 01 4f 26 3e b9 7f a3 3d
       -0.0804212 0.118985854 0.16241075 0.079833455
000150 07 b4 02 3d b8 81 8a 3e 37 f1 29 3c 72 f0 f2 bd
       0.03190997 0.27052093 0.0103724515 -0.118622676
000160 f7 99 7e 3d 3e 87 40 bd 12 11 a1 3d bd cd 35 be
       0.06215855 -0.047003977 0.07864584 -0.17754264
000170 ce 81 e5 bd c1 70 1c bd 94 94 d2 bc 31 82 1c 3e
       -0.11206399 -0.038193468 -0.025705613 0.15284039
000180 9d d6 5c 3e 80 c8 ee 3d a4 fa 14 bc 33 a1 1d be
       0.21566243 0.11659336 -0.0090929605 -0.15393524
000190 08 3e 44 be cc 24 52 3d 40 8a 20 3d 15 1b 61 3e
       -0.19164288 0.051304623 0.039194345 0.21982987
0001a0 e9 87 3a be 77 4a 38 3e 45 64 33 3e a5 a8 33 be
       -0.18215908 0.17997156 0.17518719 -0.17544802
0001b0 2e 04 74 3c ac d2 6e 3d db e4 2c be 2c 3a 32 3e
       0.014893575 0.05830638 -0.16884176 0.17405003
0001c0 fe 56 04 be b5 8a 1e be 79 64 35 be 61 cb 7b 3e
       -0.1292381 -0.154826 -0.17714109 0.24589302
0001d0 c3 8e d2 bc 1b 4c 97 3e f8 22 2a be d5 dc be 3e
       -0.02570284 0.2955025 -0.16614902 0.37277856
0001e0 d6 df bc bb 01 b8 3e 3e 4b c2 25 3e d0 21 0a bd
       -0.005763988 0.1862488 0.16187398 -0.033723652
0001f0 5d 3f 53 bc 43 72 f5 3c 81 db 9d be d9 c5 cc 3d
       -0.012893525 0.02996171 -0.3083153 0.09998674
000200 89 7c 8c bd 71 aa 5d 3e 90 48 a7 3d 23 96 00 bd
       -0.06859691 0.2164705 0.08168137 -0.03139318
000210 a4 79 42 be 0d 0c 6f 3d dc 1f 14 3e 1e c4 55 3c
       -0.18991715 0.058361102 0.14465278 0.013047246
000220 f7 03 4f bd 88 45 a8 bd 62 c4 40 3e 14 e4 9c 3e
       -0.05054089 -0.08216387 0.18824914 0.3064276
000230 b4 92 d4 bc 45 5a 42 3e 0e c6 0d 3e c7 02 5e be
       -0.02594886 0.18979748 0.13845083 -0.21680747
000240 77 71 b0 3d 12 16 c5 3b ad 6c 7a 3d c3 c6 7a 3e
       0.08615392 0.006014594 0.061138798 0.24489884
000250 82 c9 6d 3d 0c 01 93 be bd 89 02 3e 2d 3c 19 be
       0.0580535 -0.28711736 0.12747855 -0.14964361
000260 0f 3a a8 bd 27 8b a4 3c 9d 6b ac 3d f3 a7 36 bd
       -0.08214199 0.020085884 0.08418963 -0.044593763
000270 15 d3 5c bc 24 f0 aa bd 39 95 10 3e 57 00 5c 3e
       -0.01347806 -0.083465844 0.14119424 0.21484505
000280 ba 42 0c 3e 95 2e 0c 3d df a3 4c 3e 0f 63 25 be
       0.13697329 0.03422411 0.19984387 -0.16151069
000290 ca e1 a5 3c 38 12 7f be a7 9e 16 be cc 46 be 3d
       0.020249266 -0.24909294 -0.14708959 0.09290847
0002a0 91 24 76 3d c9 a6 89 3d b9 79 02 be 11 36 18 bc
       0.060093466 0.06721265 -0.12741746 -0.009290234
0002b0 41 91 fc 3c 39 1b 8d bd 81 cc 30 bd 96 83 b3 3d
       0.030830981 -0.06889958 -0.04316378 0.087653324
0002c0 b5 2e d4 bc 07 ef 0b 3e 22 ee c7 3d df 97 27 be
       -0.025901178 0.136654 0.09762217 -0.16366528
0002d0 ca 63 27 bd 77 88 2e 3c d9 79 95 3d bc 47 a7 3d
       -0.04086665 0.010652653 0.07298631 0.08167979
0002e0 2e 49 d1 bd aa 00 eb 3c 1a 65 14 3e d3 14 29 be
       -0.10219036 0.02868684 0.14491692 -0.1651185
0002f0 42 11 0a be 3a ae c3 bc 5a ed 9c 3e 1e d6 02 be
       -0.13483146 -0.023886789 0.30649835 -0.12776992
000300 ff e3 ec 3d bf 1e ba bd 39 38 46 3e e9 e6 68 bd
       0.11566924 -0.090878956 0.19357385 -0.056860838
000310 ef 56 45 be e9 4f ab 3c f8 c8 f2 3d 5a e0 e1 bd
       -0.19271444 0.020912128 0.11854738 -0.1102912
000320 a4 9d ad bd b0 88 c0 3d 62 be a9 3d 66 02 9a 3e
       -0.08477333 0.09401071 0.08288266 0.30079955
000330 c2 d2 1b be 1d 66 13 3e 66 49 32 3e af 0c 19 be
       -0.15217116 0.14394422 0.17410812 -0.14946245
000340 67 9c 59 be 61 bb 45 3e 03 18 25 be d2 2c 72 3e
       -0.21251069 0.1930976 -0.16122441 0.2364991
000350 45 eb db bd f1 02 0e 3e fe e4 6a bc 67 2b 3d bd
       -0.107382335 0.1386831 -0.014336823 -0.04618397
000360 3b 4a 12 be f4 ae 8c 3d 37 a8 5d be f1 20 c1 3b
       -0.14286129 0.06869307 -0.216462 0.0058938195
000370 1f b4 53 3d 17 e1 15 be 9d 5e 3b 3e e2 8e 45 be
       0.05168545 -0.14636646 0.18297811 -0.19292787
000380 08 4a 8a be 4b 21 b3 3d d8 e1 67 be 56 52 9b 3e
       -0.27009606 0.087465845 -0.22644746 0.30336255
000390 bb cf c5 bd ed 5b 7e 3d 89 94 58 3e 57 2f b6 bb
       -0.09658762 0.062099386 0.21150412 -0.0055598426
0003a0 f5 4c 3e be 26 18 19 be a1 c7 8e 3d fa e5 32 3e
       -0.18584044 -0.14950618 0.0697167 0.17470542
0003b0 57 73 08 bd 94 79 3b be d9 47 89 3d 3c 9b 8e 3e
       -0.03331312 -0.18308097 0.06703157 0.2785281
0003c0 ac 78 ea bd 9b 5e bc 3d c8 54 00 be 29 9a 93 3d
       -0.114487976 0.09197732 -0.12532341 0.07207138
0003d0 0c 8b 4a 3e 83 96 4c 3e 0a 2a d0 bd 38 5e 06 3e
       0.19779605 0.1997929 -0.10164268 0.13121879
0003e0 53 71 94 3d b5 81 f3 bd ae 5b 3e 3e d9 4c 57 be
       0.072481774 -0.11889974 0.1858966 -0.21025409
0003f0 91 d6 04 3e 99 49 6a bd 92 ba 9c 3d 50 ae 99 3e
       0.12972476 -0.057199094 0.07652773 0.30015802

_impl.layers.2.linear.weight_g f4 [50, 1]
000000 ec 37 80 3f 5e cf 6e 3f cf da 74 3f 58 52 7c 3f
       1.0017066 0.9328517 0.95646375 0.98563147
000010 d2 53 7b 3f 6a f4 72 3f ce 19 72 3f d1 82 75 3f
       0.98174775 0.94904196 0.94570625 0.95902735
000020 2e 2e 72 3f 03 05 7d 3f a5 4d 73 3f f5 14 78 3f
       0.94601715 0.9883577 0.9504035 0.9690698
000030 19 7b 74 3f 86 3f 79 3f 3e f8 76 3f d3 e2 75 3f
       0.9550033 0.97362554 0.9647254 0.9604923
000040 60 d6 6a 3f 4b 99 76 3f 6f 90 78 3f 16 29 65 3f
       0.9173336 0.96327657 0.9709539 0.8951582
000050 a9 09 70 3f f2 1c 73 3f 29 1a 7a 3f 52 a2 73 3f
       0.9376474 0.9496604 0.9769617 0.95169556
000060 3c 43 79 3f 04 e4 79 3f 91 75 72 3f a9 c6 76 3f
       0.97368217 0.9761355 0.9471064 0.9639688
000070 f2 4e 6d 3f 68 d1 7f 3f 76 22 7a 3f 6f 02 78 3f
       0.92698586 0.99928904 0.97708833 0.96878713
000080 cf f9 78 3f 79 0b 7b 3f 1f ae 73 3f b9 1a 70 3f
       0.9725618 0.9806438 0.9518756 0.93790776
000090 02 6a 7b 3f 32 85 75 3f 51 ac 81 3f 51 e0 7b 3f
       0.9820863 0.95906365 1.0130712 0.98389155
0000a0 66 6b 7c 3f 64 8b 72 3f a2 a5 80 3f a4 ef 81 3f
       0.98601377 0.94743943 1.0050547 1.0151258
0000b0 e4 ed 71 3f aa 1c 70 3f bc 1d 72 3f 2a 90 7d 3f
       0.9450362 0.9379374 0.9457662 0.990481
0000c0 e2 d6 75 3f e0 fa 77 3f
       0.9603101 0.9686718

_impl.layers.2.linear.bias f4 [50]
000000 23 61 0f be 3b f7 0b be e7 26 28 be 8f 55 04 3e
       -0.14001898 -0.1366853 -0.1642109 0.12923263
000010 5b 09 ff bd 38 84 c4 3d 21 d3 ea bd 6d fd cf 3d
       -0.12452956 0.09595531 -0.11466051 0.10155759
000020 2d 92 1e 3e 20 5b 04 be e0 23 f4 bd ff c1 0d 3e
       0.15485449 -0.12925386 -0.11920905 0.13843535
000030 71 f0 1e be 4a c7 f7 3d 35 3d e7 3d 39 f6 d4 bd
       -0.15521409 0.12098558 0.11290971 -0.10398526
000040 9e ab 12 3e 11 13 d9 bd bc 4e de bd f0 73 0b 3e
       0.1432328 -0.1059934 -0.10854861 0.13618445
000050 db 2e 24 3e 3b 1f ef bd 26 36 de 3d 0c 67 ec 3d
       0.16033499 -0.116758786 0.10850172 0.11543092
000060 d3 21 f0 3d c2 79 02 be 8d 4d da bd e9 6c 13 3e
       0.117252015 -0.1274176 -0.10659323 0.14397015
000070 bf a8 dd 3d 4e a4 e6 bd 9a c0 09 3e db 2c 08 be
       0.108232014 -0.112618074 0.13452378 -0.13298361
000080 9a d9 da bd 63 f2 db bd a2 49 0f be 8a cb 02 3e
       -0.106860355 -0.10739591 -0.13992932 0.12772956
000090 7e f6 cb bd 12 6c 0d 3e 62 40 fe 3d d5 ee cf 3d
       -0.09959124 0.13810757 0.12414624 0.101529755
0000a0 a5 50 0c 3e b5 10 08 be e0 08 0b be 21 3f d7 3d
       0.13702638 -0.13287623 -0.13577604 0.10510088
0000b0 09 10 09 be 42 b7 43 3e ce 1c fb 3d 81 2c fd bd
       -0.13385023 0.19112876 0.122613534 -0.12362004
0000c0 a3 a7 3b be e8 ea e3 bd
       -0.18325667 -0.11128789

_impl.final_layer.linear.weight f4 [1, 50]
000000 3b d5 34 c1 d6 df 37 c1 d5 95 34 c1 48 f5 35 41
       -11.302058 -11.492147 -11.28658 11.372383
000010 72 37 36 c1 cc bb 38 41 97 dc 37 c1 e3 b2 38 41
       -11.388536 11.545849 -11.491355 11.5436735
000020 b2 62 36 41 57 41 37 c1 d8 39 39 c1 e1 69 36 41
       11.399096 -11.453452 -11.576622 11.400849
000030 9b 2f 35 c1 02 e3 35 41 94 8d 36 41 f3 c1 37 c1
       -11.324122 11.367922 11.409565 -11.484851
000040 85 b5 34 41 a4 66 35 c1 c8 f9 38 c1 14 00 35 41
       11.294316 -11.337559 -11.560982 11.312519
000050 4b 27 35 41 49 4b 38 c1 04 0d 39 41 1f 1e 37 41
       11.322093 -11.51838 11.565678 11.444854
000060 ee 51 37 41 f3 08 39 c1 cc c1 38 c1 4f 6b 36 41
       11.457502 -11.564685 -11.547314 11.401198
000070 71 3e 37 41 3a e2 38 c1 50 67 39 41 90 6a 35 c1
       11.4527445 -11.555231 11.587723 -11.338516
000080 f9 bf 38 c1 8d ed 37 c1 c2 42 35 c1 f0 f0 36 41
       -11.546868 -11.495496 -11.328798 11.433823
000090 cc 17 38 c1 72 03 38 41 13 c1 39 41 52 26 39 41
       -11.50581 11.500841 11.609637 11.571856
0000a0 bd 7a 36 41 56 6d 36 c1 f3 ee 35 c1 7c 4a 38 41
       11.404965 -11.401693 -11.370837 11.518185
0000b0 b8 5f 35 c1 8c b7 35 41 54 89 39 41 a0 b2 39 c1
       -11.335869 11.357311 11.596027 -11.60611
0000c0 9a 86 35 c1 07 87 36 c1
       -11.345362 -11.407966
