PINNs/model_saved/fourier_m10_scale3/u_network.0.pth (torch, 18949 bytes, 7 tensors)

_impl.layers.0.linear.weight f4 [50, 20]
0.16416998 0.21377267 -0.11988008 0.20291352 -0.10789409 0.09382146 -0.114471614 0.12659603
0.19671065 -0.2620862 0.3428312 -0.062413536 0.19284391 -0.0033583527 0.18525486 -0.13537231
0.25096127 0.006981646 -0.075812854 0.17809013 -0.062356975 -0.07176296 -0.13261437 0.18249905
-0.32246667 -0.10396529 -0.18778056 -0.18311083 -0.016160654 -0.27006307 0.31081837 -0.34857738
0.19127573 -0.019947575 -0.15387511 0.111442916 0.11618468 0.15474434 0.030410742 -0.13455425
0.073380314 -0.042530037 0.074861825 0.1835943 0.17979117 -0.11675106 0.23214976 0.06678118
0.25065032 -0.1886616 -0.24622707 -0.13984664 -0.15984488 0.18314333 0.16525899 0.116113566
0.087022744 0.079611935 0.23021439 -0.15666558 0.039289903 -0.14233105 0.121198714 -0.060509123
0.20031369 -0.102478586 0.3268316 -0.17300422 -0.10439232 -0.118310824 0.27622238 0.050234813
0.29065984 -0.17252758 -0.2063476 -0.18864964 -0.21810266 0.15950388 0.0661891 0.266571
-0.13803805 -0.20962827 0.17639197 -0.069964245 0.27495736 -0.058652826 0.12947035 -0.21131387
-0.16009775 0.13014401 0.14054154 -0.0109693995 0.2696328 0.28953436 -0.1314205 -0.025893794
0.2852712 -0.015565924 -0.09028146 -0.16170059 -0.12041174 0.03149912 -0.07168532 -0.24838148
0.014694894 -0.15267573 -0.31235173 -0.24255013 -0.2060452 -0.18972711 0.2540827 0.0052169976
0.079815716 -0.28694645 -0.2603422 -0.11378085 -0.03319304 -0.29193604 -0.08671812 -0.19505087
0.007166744 -0.17708705 -0.034440298 -0.21303156 -0.09732966 -0.12721029 -0.033811685 -0.27036816
0.23972353 -0.056298614 0.2043409 0.033453297 -0.23187897 0.20326792 -0.020950671 -0.1142404
-0.28225753 -0.31527767 0.032568943 -0.055756304 0.1174718 -0.2983705 0.1805368 -0.24542317
-0.087824665 0.10658035 0.06212332 0.15937226 0.16864173 -0.23167704 0.07973576 -0.18294394
-0.062024344 -0.23645982 0.21499228 -0.24943975 0.1226609 -0.0030921693 0.0666091 -0.16663948
0.30615115 0.037692774 0.049343675 -0.24474499 0.10126975 -0.030597128 -0.109553754 0.28280562
0.09464489 -0.1346402 -0.03437496 -0.07438816 0.16163588 -0.05654858 -0.16237462 -0.12382102
-0.19962627 0.040923372 0.26398736 -0.18992595 0.09266122 0.2112588 0.07096167 -0.0777932
0.12853596 0.10664613 0.041828085 0.020762334 -0.031022703 0.04824615 -0.09876182 0.03009828
0.14541017 0.20661736 -0.018167512 0.011555144 -0.045785274 -0.058894884 0.12981565 0.022790069
-0.24981305 -0.058417186 0.22425531 0.095486954 -0.06194689 -0.1959762 -0.08296276 -0.17941704
-0.016610613 0.07436054 0.21054582 0.19796719 -0.27300096 -0.19402291 -0.07413432 0.2657643
-0.060673434 -0.16447982 0.23569065 -0.14081247 -0.16444239 0.17594652 -0.15934102 -0.085347176
-0.3570704 0.22951815 0.14317235 0.20097654 -0.23552419 -0.29674536 -0.25513119 0.18703866
0.1638946 0.2707914 0.07308309 0.08019789 -0.10085486 -0.21979603 -0.2873175 -0.25918508
0.108671926 -0.081724785 -0.03918915 -0.13499916 -0.014994811 -0.22199313 -0.24191478 0.12863693
-0.17463422 0.16440988 -0.12957858 -0.12529385 -0.13932803 -0.19154412 -0.12668148 -0.2594095
00000000: 2d1c 283e 39e7 5a3e b083 f5bd 90c8 4f3e
00000010: 94f7 dcbd 7725 c03d 1870 eabd 64a2 013e
00000020: 846e 493e 2a30 86be 9287 af3e 56a5 7fbd
00000030: e078 453e cf17 5cbb 73b3 3d3e 0a9f 0abe
00000040: ff7d 803e 4bc6 e43b c543 9bbd 425d 363e
00000050: 076a 7fbd 75f8 92bd 10cc 07be 08e1 3a3e
00000060: 5a1a a5be c1eb d4bd 8c49 40be 6881 3bbe
00000070: 5963 84bc b545 8abe 9623 9f3e bc78 b2be
00000080: c9dd 433e 1969 a3bc 7091 1dbe 2f3c e43d
00000090: 3cf2 ed3d 4d75 1e3e f31f f93c 97c8 09be
000000a0: 6b48 963d fa33 2ebd 2851 993d 2500 3c3e
000000b0: 2d1b 383e 2e1b efbd abb8 6d3e 92c4 883d
000000c0: 3d55 803e 8230 41be f322 7cbe f533 0fbe
000000d0: 60ae 23be ed89 3b3e a739 293e f3cc ed3d
000000e0: fb38 b23d 950b a33d 52bd 6b3e f16c 20be
000000f0: 73ee 203d 3bbf 11be 0837 f83d 6ad8 77bd
00000100: 081f 4d3e 4be0 d1bd 7956 a73e 0528 31be
00000110: a4cb d5bd f24c f2bd 056d 8d3e 05c3 4d3d
00000120: 5ed1 943e 12ab 30be c94c 53be 5f2d 41be
00000130: 4e56 5fbe fc54 233e 278e 873d fe7b 883e
00000140: d959 0dbe cba8 56be 19a0 343e 6a49 8fbd
00000150: 36c7 8c3e f23d 70bd e093 043e aa62 58be
00000160: aaf0 23be 7944 053e 1fea 0f3e ffb8 33bc
00000170: 4f0d 8a3e d93d 943e 1893 06be 391f d4bc
00000180: 110f 923e 3808 7fbc 7ce5 b8bd d794 25be
00000190: 6e9a f6bd 3905 013d c1cf 92bd b757 7ebe
000001a0: dac2 703c 0757 1cbe 91ec 9fbe 105f 78be
000001b0: 83fd 52be d347 42be 2117 823e 59f3 aa3b
000001c0: 6c76 a33d a5ea 92be 934b 85be ef05 e9bd
000001d0: 6df5 07bd a478 95be 4599 b1bd 6abb 47be
000001e0: 02d7 ea3b 4f56 35be 4511 0dbd f224 5abe
000001f0: c654 c7bd 6a43 02be 1f7e 0abd b26d 8abe
00000200: 167a 753e 6099 66bd be3e 513e 5306 093d
00000210: ae71 6dbe 7725 503e bea0 abbc dff6 e9bd
00000220: 0f84 90be 136c a1be 0367 053d b960 64bd
00000230: 0e95 f03d 05c4 98be a4de 383e 3650 7bbe
00000240: 6bdd b3bd cc46 da3d 0675 7e3d 7b32 233e
00000250: 6bb0 2c3e bf3c 6dbe 814c a33d a855 3bbe
00000260: 3d0d 7ebd 8622 72be f026 5c3e 226d 7fbe
00000270: a335 fb3d fea5 4abb 5a6a 883d 8aa3 2abe
00000280: d8bf 9c3e bd63 1a3d 981c 4a3d 6e9e 7abe
00000290: 8466 cf3d d4a6 fabc b85d e0bd e6cb 903e
000002a0: 2ed5 c13d 1fdf 09be c2cc 0cbd d258 98bd
000002b0: e083 253e 7c9f 67bd 8845 26be e095 fdbd
000002c0: d46a 4cbe 449f 273d 5a29 873e f37b 42be
000002d0: 2ac5 bd3d 3a54 583e 5a54 913d 0b52 9fbd
000002e0: ee9e 033e 4969 da3d ed53 2b3d c515 aa3c
000002f0: 5323 febc c19d 453d a343 cabd ab90 f63c
00000300: 67e6 143e 8093 533e 09d4 94bc c951 3d3c
00000310: 5789 3bbd c33b 71bd 65ee 043e 3db2 ba3c
00000320: fece 7fbe dc46 6fbd 2fa3 653e aa8e c33d
00000330: 06bc 7dbd fcad 48be 61e8 a9bd 1ab9 37be
00000340: fb12 88bc 574a 983d 5399 573e e9b7 4a3e
00000350: c8c6 8bbe f1ad 46be bcd3 97bd 4212 883e
00000360: b584 78bd 666d 28be e458 713e 2531 10be
00000370: 9663 28be 532b 343e 4b2a 23be 80ca aebd
00000380: eed1 b6be ce06 6b3e c69b 123e cbcc 4d3e
00000390: 412d 71be 02ef 97be 8ea0 82be 1087 3f3e
000003a0: fcd3 273e 2ca5 8a3e 96ac 953d cb3e a43d
000003b0: fe8c cebd 3612 61be 481b 93be e8b3 84be
000003c0: 638f de3d 535f a7bd cd84 20bd 383d 0abe
000003d0: ccac 75bc 2b52 63be 82b8 77be 66b9 033e
000003e0: 50d3 32be 105b 283e 3fb0 04be 084d 00be
000003f0: 02ac 0ebe 2424 44be cab8 01be 52d1 84be

_impl.layers.0.linear.weight_g f4 [50, 1]
1.0292501 0.9363051 1.100963 1.0328078 1.0933611 0.95169914 1.0490541 1.0357358
1.074068 1.0560448 1.0138294 0.9760868 1.1310447 1.0911794 1.0150565 0.955433
1.0448762 1.0606806 1.0378867 1.0789303 1.0576035 1.1114192 0.99960136 1.0999063
1.0544953 1.0172153 1.023177 1.1188409 1.0191354 1.1045654 1.0783129 1.0368528
1.0346134 1.0524356 0.97164756 1.0122951 1.0916672 1.0142183 1.0218302 1.0984206
1.0509919 0.9858946 0.9588282 1.0241646 1.0446717 0.9959689 1.0938729 1.1261549
1.0223606 0.96541804
00000000: 78be 833f b1b1 6f3f 5bec 8c3f 0c33 843f
00000010: 42f3 8b3f 8ea2 733f 6847 863f fe92 843f
00000020: 0f7b 893f 7a2c 873f 29c5 813f d3e0 793f
00000030: 13c6 903f c4ab 8b3f 5fed 813f 4297 743f
00000040: 81be 853f 62c4 873f 79d9 843f 631a 8a3f
00000050: 8d5f 873f fc42 8e3f e0e5 7f3f bbc9 8c3f
00000060: b4f9 863f 1c34 823f 77f7 823f 2e36 8f3f
00000070: 0773 823f 6662 8d3f 2806 8a3f 98b7 843f
00000080: 366e 843f 36b6 863f e5bd 783f e392 813f
00000090: c0bb 8b3f e8d1 813f 55cb 823f 0c99 8c3f
000000a0: e786 863f 9763 7c3f c475 753f d317 833f
000000b0: cdb7 853f d1f7 7e3f 0704 8c3f d825 903f
000000c0: b6dc 823f a325 773f

_impl.layers.0.linear.bias f4 [50]
-0.09820378 0.024325958 -0.068034 -0.012857888 -0.103544205 -0.08356551 -0.014832086 -0.03531554
-0.05621634 0.09154637 0.07029632 -0.034902543 0.10509485 -0.020328056 -0.10490751 -0.07580714
0.019692877 0.043551244 0.008836291 -0.015932731 -0.119901426 -0.11418906 -0.05269125 0.049243465
0.11942497 0.02587444 0.039098423 0.022531029 0.003900688 0.03516757 -0.07493832 0.09578151
0.12187111 0.05699376 0.107307106 -0.04249199 -0.0066604232 -0.08564648 0.11639639 -0.048542384
-0.12675832 -0.016315605 0.08088857 0.022489298 -0.07443372 0.012218547 -0.04195362 -0.09325562
-0.063902855 -0.09185592
00000000: 101f c9bd 3b47 c73c 6955 8bbd e4a9 52bc
00000010: fc0e d4bd 6524 abbd 4702 73bc 07a7 10bd
00000020: 1b43 66bd aa7c bb3d 84f7 8f3d f8f5 0ebd
00000030: f83b d73d 0687 a6bc c0d9 d6bd c640 9bbd
00000040: f552 a13c ca62 323d 17c6 103c 5c85 82bc
00000050: e18e f5bd f4db e9bd c8d2 57bd 84b3 493d
00000060: 1495 f43d a2f6 d33c ab25 203d fe92 b83c
00000070: afa2 7f3b df0b 103d 4379 99bd 1929 c43d
00000080: 8f97 f93d 4a72 693d d4c3 db3d 150c 2ebd
00000090: ae3f dabb 6c67 afbd 3b61 ee3d 61d4 46bd
000000a0: efcc 01be 4ea8 85bc e8a8 a53d 7a3b b83c
000000b0: b570 98bd 4d30 483c 8fd7 2bbd cdfc bebd
000000c0: 80df 82bd f51e bcbd

_impl.layers.1.linear.weight f4 [50, 50]
0.07708833 -0.10289353 -0.2214199 0.097680755 -0.077460244 -0.15477712 -0.018007884 -0.0866228
-0.08983526 -0.0013743683 0.05596891 -0.1821412 -0.19928925 0.046793237 0.009458455 0.16006742
-0.19586752 0.1621691 0.12200542 0.18742824 -0.2462003 -0.030565986 -0.2588464 -0.12943722
0.14526609 -0.06887296 0.087010466 -0.086394645 -0.034891125 -0.101931155 0.09661455 -0.05921301
0.03129423 -0.15344411 0.00828051 0.25262105 0.09934038 -0.12189316 -0.0017749206 -0.019730806
-0.23875691 0.12953058 0.037670393 0.0834539 -0.06513134 -0.07847995 -0.026803996 0.15555681
0.1259024 -0.13651635 0.18333612 -0.090141654 -0.2062084 -0.09192946 0.22923978 -0.056378327
0.0011778306 -0.048172083 -0.007082731 -0.3063037 -0.1976671 0.053256843 0.12856434 0.2999136
-0.132745 0.16574594 -0.14013565 0.091192275 0.2141693 0.26140794 0.12301704 0.2
-0.0032960789 0.050476886 -0.04745526 0.15882854 -0.106706515 0.05833614 -0.2260167 0.013473739
-0.19430389 -0.0712276 -0.11870893 -0.28317085 -0.016149042 0.14051604 0.1895664 0.12365642
-0.09507302 -0.26064605 0.03872455 0.09047756 -0.16682397 0.11163829 0.21003453 -0.001215418
-0.084216446 0.2762908 0.15212332 0.1898121 -0.19662122 0.040590137 -0.2113044 0.20567213
-0.015831191 0.07577193 0.050561633 0.0911809 -0.055098664 0.0895382 -0.10702731 -0.22347891
-0.11620288 0.24271376 -0.06670001 0.1199237 -0.11813586 0.17870532 0.14727539 0.14241794
-0.17667459 -0.15359378 -0.02790574 -0.1863557 0.23661816 -0.2164091 0.06847087 0.22607501
0.067866445 0.13425788 -0.28497225 0.15215993 0.019832572 -0.22513723 0.22351144 -0.032542694
-0.07331624 0.22663602 -0.17655137 -0.16177994 0.007230232 -0.113767266 0.08584087 -0.16382942
0.052915152 -0.080909155 -0.2024826 -0.1752603 0.15550706 0.04967368 -0.29079238 0.105431534
0.020158622 0.030711886 -0.07951989 -0.008612985 0.3033086 0.19750226 -0.14853875 0.14771643
0.00232245 0.07832185 0.1587498 0.25565943 -0.1606668 0.21670729 -0.18172339 0.009013286
-0.14587583 -0.010078105 -0.070376776 -2.3060957e-05 -0.06380105 -0.0468975 0.26757833 0.18456009
0.08566269 0.10300263 0.16243699 0.06887542 -0.05346332 0.1203285 -0.20478751 -0.25382462
0.0027176684 -0.07536007 -0.045534763 -0.08350675 0.06613188 0.13141602 -0.15953335 0.17114657
0.20690659 -0.15783851 -0.1454549 -0.2137956 -0.16359115 -0.04120796 -0.019056354 -0.006262396
-0.09912063 -0.10029517 0.009934446 0.24276592 -0.09965825 -0.14454816 0.043304052 -0.059676003
0.12882411 0.24045552 0.271427 -0.21700636 0.20849833 0.1412513 -0.17110184 0.13007246
0.21217987 -0.08278217 0.08096988 -0.12983875 -0.15550695 0.03859234 0.12430951 -0.0799046
0.068936415 -0.1960373 0.27645412 0.21315086 0.0811231 -0.15638925 0.16399868 -0.012959777
0.007829822 0.08943336 0.113631606 -0.13335153 0.013171595 0.10228682 0.0021254076 0.26304764
-0.13005775 -0.003931272 -0.0034183017 -0.12873888 0.20447154 0.03751065 -0.16308592 -0.13171224
-0.2024793 0.0031888147 -0.091680065 -0.23187184 -0.09453931 -0.0109792 -0.025227128 0.1957538
00000000: 7de0 9d3d d8b9 d2bd e6bb 62be d90c c83d
00000010: 7aa3 9ebd e57d 1ebe 4585 93bc 4b67 b1bd
00000020: 8cfb b7bd 2624 b4ba a83f 653d 3983 3abe
00000030: 7b12 4cbe 44aa 3f3d a3f7 1a3c b7e8 233e
00000040: 7f91 48be a80f 263e fadd f93d 30ed 3f3e
00000050: ee1b 7cbe 8565 fabc 8487 84be 318b 04be
00000060: a2c0 143e 440d 8dbd 8b32 b23d adef b0bd
00000070: ffe9 0ebd 48c1 d0bd d9dd c53d 5789 72bd
00000080: 612e 003d 7420 1dbe faaa 073c 8c57 813e
00000090: f872 cb3d 1fa3 f9bd 74a4 e8ba 80a2 a1bc
000000a0: b17c 74be aaa3 043e 454c 1a3d e1e9 aa3d
000000b0: 9463 85bd 19ba a0bd 0e94 dbbc 494a 1f3e
000000c0: 8fec 003e f1ca 0bbe 77bc 3b3e 309c b8bd
000000d0: 4b28 53be 8345 bcbd d5bd 6a3e f6ec 66bd
000000e0: 7061 9a3a 1750 45bd 4116 e8bb d7d3 9cbe
000000f0: 3f69 4abe d923 5a3d 5fa6 033e 468e 993e
00000100: 4eee 07be 4eb9 293e b87f 0fbe 04c3 ba3d
00000110: 324f 5b3e 43d7 853e 5cf0 fb3d cdcc 4c3e
00000120: 0703 58bb dac0 4e3d 7260 42bd f3a3 223e
00000130: f288 dabd e0f1 6e3d ec70 67be f5c0 5c3c
00000140: 99f7 46be c7df 91bd ab1d f3bd c5fb 90be
00000150: ff4a 84bc 70e3 0f3e b21d 423e 943f fd3d
00000160: a5b5 c2bd 6673 85be a29d 1e3d 4d4c b93d
00000170: e7d3 2abe 9ea2 e43d 4b13 573e a94e 9fba
00000180: ac79 acbd fd75 8d3e 37c6 1b3e 1a5e 423e
00000190: 1357 49be d841 263d 2e60 58be b79b 523e
000001a0: 6ab0 81bc 502e 9b3d b719 4f3d 0dbd ba3d
000001b0: 23af 61bd ce5f b73d 2231 dbbd a8d7 64be
000001c0: c7fb edbd f589 783e 049a 88bd 8f9a f53d
000001d0: 37f1 f1bd 87fe 363e 5ccf 163e 02d6 113e
000001e0: 2fea 34be b047 1dbe 949a e4bc 07d4 3ebe
000001f0: 084c 723e 599a 5dbe 753a 8c3d 3580 673e
00000200: 90fd 8a3d e67a 093e e2e7 91be d0cf 1b3e
00000210: eb77 a23c 608a 66be 2fe0 643e 7d4b 05bd
00000220: d326 96bd 4613 683e e2c9 34be a4a9 25be
00000230: 95eb ec3b d0fe e8bd 57cd af3d e6c2 27be
00000240: 8fbd 583d b3b3 a5bd 9957 4fbe 7077 33be
00000250: 3e3d 1f3e a176 4b3d bde2 94be 7dec d73d
00000260: b223 a53c 7e97 fb3c 53db a2bd 7a1d 0dbc
00000270: 444b 9b3e 083e 4a3e 8b1a 18be fa42 173e
00000280: 3f34 183b 3567 a03d 4f8f 223e cbe5 823e
00000290: d685 24be 84e8 5d3e b215 3abe 76ac 133c
000002a0: 7960 15be a31e 25bc b321 90bd 0773 c1b7
000002b0: 20aa 82bd 9817 40bd 0700 893e 52fd 3c3e
000002c0: ec6f af3d 0bf3 d23d e255 263e 8e0e 8d3d
000002d0: 5bfc 5abd ca6e f63d d1b3 51be 4df5 81be
000002e0: e91a 323b 6156 9abd a982 3abd 9605 abbd
000002f0: 2770 873d ec91 063e b65c 23be 0c41 2f3e
00000300: 52df 533e 6ba0 21be 21f2 14be 3ced 5abe
00000310: 7084 27be aec9 28bd 121c 9cbc c934 cdbb
00000320: c2ff cabd 8e67 cdbd 16c4 223c a197 783e
00000330: a019 ccbd 6f04 14be 975f 313d d36e 74bd
00000340: 78ea 033e f939 763e 7bf8 8a3e ea36 5ebe
00000350: 9680 553e 2ea4 103e 5235 2fbe b731 053e
00000360: ae45 593e b389 a9bd 89d3 a53d 73f4 04be
00000370: 373d 1fbe 0013 1e3d fc95 fe3d 06a5 a3bd
00000380: 892e 8d3d 01be 48be 658b 8d3e 3844 5a3e
00000390: de23 a63d 8124 20be 45ef 273e 3f55 54bc
000003a0: a748 003c d628 b73d b0b7 e83d 4e8d 08be
000003b0: accd 573c c17b d13d 6c4a 0b3b 2eae 863e
000003c0: dc2d 05be e6d1 80bb 9605 60bb 20d4 03be
000003d0: fd60 513e c4a4 193d ffff 26be 93df 06be
000003e0: bc56 4fbe 6ffb 503b c2c2 bbbd d06f 6dbe
000003f0: d39d c1bd 1ae2 33bc 1fa9 cebc af73 483e

_impl.layers.1.linear.weight_g f4 [50, 1]
1.0613844 1.0569185 1.0615252 1.0457115 1.077472 1.0419062 1.0399264 1.0866121
1.0241121 1.0789816 1.0080419 1.090496 1.0500981 1.082055 1.0344284 1.1034051
0.94903904 1.0378906 1.0456992 1.0799187 1.0545588 1.0280561 1.0662377 1.0714909
1.1021669 1.0563638 0.98609245 1.0451933 1.0114154 0.99649453 1.0212069 0.9808915
1.0707164 0.9745048 1.0916721 1.0766134 1.0075911 0.96995497 1.001981 1.0860367
1.0823199 1.0023073 1.028768 1.0628161 1.0328325 1.0685326 1.0547533 1.0917428
0.9572772 0.98115325
00000000: 72db 873f 1b49 873f 0fe0 873f e0d9 853f
00000010: 9aea 893f 2f5d 853f 4f1c 853f 1b16 8b3f
00000020: 1b16 833f 121c 8a3f 8407 813f 5f95 8b3f
00000030: 9d69 863f c780 8a3f 2668 843f 613c 8d3f
00000040: 39f4 723f 99d9 843f 79d9 853f c73a 8a3f
00000050: c8fb 863f 5897 833f 7a7a 883f 9d26 893f
00000060: ce13 8d3f ee36 873f 8e70 7c3f e5c8 853f
00000070: 0f76 813f 441a 7f3f e8b6 823f b51b 7b3f
00000080: 3c0d 893f 2679 793f e9bb 8b3f 78ce 893f
00000090: bff8 803f f84e 783f ea40 803f 4003 8b3f
000000a0: 7589 8a3f 9b4b 803f abae 833f 5c0a 883f
000000b0: db33 843f adc5 883f 2802 873f 3abe 8b3f
000000c0: 1e10 753f dc2c 7b3f

_impl.layers.1.linear.bias f4 [50]
0.051457893 -0.05158277 0.05983356 0.056396622 -0.051755093 -0.027767008 -0.085392356 0.013618097
-0.025113868 -0.052475143 0.017803103 0.056978207 0.055018034 0.07432037 -0.02274767 0.03950415
0.06178917 0.023291903 -0.0460008 0.10346935 0.048266325 0.045537937 -0.08186096 -0.03426904
-0.044825505 0.07547147 -0.06624751 -0.096420154 0.033794567 -0.04551711 -0.07127181 -0.0827713
0.0074712927 -0.06673959 0.050793357 0.051180493 -0.12407736 -0.06980269 0.016338086 -0.07077369
-0.015596968 0.0047044433 0.06898045 -0.05543312 -0.0151139805 0.045489673 -0.05195526 -0.045843937
-0.0056514596 -0.03580529
00000000: 83c5 523d 7448 53bd 0914 753d 2500 673d
00000010: 26fd 53bd a377 e3bc 30e2 aebd 701e 5f3c
00000020: 99bb cdbc 2df0 56bd d0d7 913c fb61 693d
00000030: 975a 613d 4735 983d 5259 babc 1bcf 213d
00000040: a416 7d3d a9ce be3c 566b 3cbd bde7 d33d
00000050: e9b2 453d fd85 3a3d b8a6 a7bd b15d 0cbd
00000060: f39a 37bd c990 9a3d c6ac 87bd ee77 c5bd
00000070: 2c6c 0a3d 2670 3abd f4f6 91bd 0084 a9bd
00000080: bfd1 f43b c4ae 88bd b20c 503d a3a2 513d
00000090: 451c febd b6f4 8ebd 73d7 853c ccf1 90bd
000000a0: 6d8a 7fbc bb27 9a3b 9f45 8d3d d70d 63bd
000000b0: a1a0 77bc 6153 3a3d 0acf 54bd dac6 3bbd
000000c0: e12f b9bb 91a8 12bd

_impl.final_layer.linear.weight f4 [1, 50]
-0.140939 -0.2796547 -0.347808 -0.36319235 0.10566919 -0.24175733 0.041282456 -0.22135924
-0.2366719 0.29645774 0.2160278 0.3204638 0.370734 -0.30879793 -0.223388 -0.32273427
0.18234219 0.21886432 0.31894052 -0.30846995 -0.20777877 0.33756846 -0.30304185 -0.27964938
0.1973068 -0.31628743 -0.067746 0.16646902 0.28630418 -0.054839753 -0.3157977 0.17827928
0.3971384 -0.22270027 -0.06859819 -0.31259763 -0.16134071 0.1305414 0.16845404 0.20898299
-0.3887979 -0.088054575 0.17998421 -0.079122625 -0.15011674 -0.22795841 0.37670133 -0.34735304
-0.23477575 0.23561694
00000000: 5052 10be e72e 8fbe e413 b2be 59f4 b9be
00000010: 1769 d83d 3c8f 77be cb17 293d ffab 62be
00000020: 1e5a 72be 4fc9 973e 6436 5d3e d513 a43e
00000030: d9d0 bd3e c31a 9ebe d3bf 64be 6d3d a5be
00000040: e9b7 3a3e f81d 603e 2c4c a33e c6ef 9dbe
00000050: f5c3 54be c6d5 ac3e 4d28 9bbe 342e 8fbe
00000060: cb0a 4a3e 6df0 a1be 6abe 8abd db76 2a3e
00000070: 7696 923e a69f 60bd 3cb0 a1be d88e 363e
00000080: b955 cb3e 8a0b 64be 357d 8cbd cc0c a0be
00000090: 8036 25be a5ac 053e 377f 2c3e a3ff 553e
000000a0: 8510 c7be f555 b4bd c84d 383e 0b0b a2bd
000000b0: 34b8 19be ee6d 69be ffde c03e 42d8 b1be
000000c0: 0e69 70be 9145 713e
